name: "SAN"
layer {
  name: "source_data"
  type: "ImageData"
  top: "source_data"
  top: "lp_labels"
  image_data_param {
    source: "./data/caltech-office/caltech_256_list.txt"
    batch_size: 64
    shuffle: true
    new_height: 256
    new_width: 256
  }
  transform_param {
    crop_size: 227
    mean_file: "./data/ilsvrc12/imagenet_mean.binaryproto"
    mirror: true
  }
  include: { phase: TRAIN }
} 
layer {
  name: "source_domain_labels"
  type: "DummyData"
  top: "source_domain_labels"
  dummy_data_param {
    data_filler {
      type: "constant"
      value: 0
    }
    num: 64
    channels: 1
    height: 1
    width: 1
  }
  include: { phase: TRAIN }
}
layer {
  name: "target_data"
  type: "ImageData"
  top: "target_data"
  top: "target_labels"
  image_data_param {
    source: "./data/caltech-office/webcam_10_list.txt"
    batch_size: 64
    shuffle: true
    new_height: 256
    new_width: 256
  }
  transform_param {
    crop_size: 227
    mean_file: "./data/ilsvrc12/imagenet_mean.binaryproto"
    mirror: true
  }
  include: { phase: TRAIN }
}
layer {
  name: "target_domain_labels"
  type: "DummyData"
  top: "target_domain_labels"
  dummy_data_param {
    data_filler {
      type: "constant"
      value: 1
    }
    num: 64
    channels: 1
    height: 1
    width: 1
  }
  include: { phase: TRAIN }
}
layer {
  name: "target_data"
  type: "ImageData"
  top: "data"
  top: "lp_labels"
  image_data_param {
    source: "./data/caltech-office/webcam_10_list.txt"
    batch_size: 1
    shuffle: false
    new_height: 256
    new_width: 256
  }
  transform_param {
    crop_size: 227
    mean_file: "./data/ilsvrc12/imagenet_mean.binaryproto"
    mirror: true
  }
  include: { phase: TEST }
}

layer {
  name: "target_domain_labels"
  type: "DummyData"
  top: "dc_labels"
  dummy_data_param {
    data_filler {
      type: "constant"
      value: 1
    }
    num: 1
    channels: 1
    height: 1
    width: 1
  }
  include: { phase: TEST }
}

layer {
  name: "no_target_label"
  type: "Silence"
  bottom: "target_labels"
  include: { phase:TRAIN }
}
layer {
  name: "no_dc_label_in_test"
  type: "Silence"
  bottom: "dc_labels"
  include: { phase:TEST }
}

# ---------------------------------------------------------- Data concatenation
layer {
  name: "concat_data"
  type: "Concat"
  bottom: "source_data"
  bottom: "target_data"
  top: "data"
  concat_param {
    concat_dim: 0
  }
  include: { phase: TRAIN }
}
layer {
  name: "concat_domain_labels"
  type: "Concat"
  bottom: "source_domain_labels"
  bottom: "target_domain_labels"
  top: "dc_labels"
  concat_param {
    concat_dim: 0
  }
  include: { phase: TRAIN }
}

# ----------------------------------------------------------------------------
layer {
  name: "conv1"
  type: "Convolution"
  bottom: "data"
  top: "conv1"
  param {
    lr_mult: 1
    decay_mult: 1
  }
  param {
    lr_mult: 2
    decay_mult: 0
  }
  convolution_param {
    num_output: 96
    kernel_size: 11
    stride: 4
    weight_filler {
      type: "gaussian"
      std: 0.01
    }
    bias_filler {
      type: "constant"
      value: 0
    }
  }
}
layer {
  name: "relu1"
  type: "ReLU"
  bottom: "conv1"
  top: "conv1"
}
layer {
  name: "pool1"
  type: "Pooling"
  bottom: "conv1"
  top: "pool1"
  pooling_param {
    pool: MAX
    kernel_size: 3
    stride: 2
  }
}
layer {
  name: "norm1"
  type: "LRN"
  bottom: "pool1"
  top: "norm1"
  lrn_param {
    local_size: 5
    alpha: 0.0001
    beta: 0.75
  }
}
layer {
  name: "conv2"
  type: "Convolution"
  bottom: "norm1"
  top: "conv2"
  param {
    lr_mult: 1
    decay_mult: 1
  }
  param {
    lr_mult: 2
    decay_mult: 0
  }
  convolution_param {
    num_output: 256
    pad: 2
    kernel_size: 5
    group: 2
    weight_filler {
      type: "gaussian"
      std: 0.01
    }
    bias_filler {
      type: "constant"
      value: 1
    }
  }
}
layer {
  name: "relu2"
  type: "ReLU"
  bottom: "conv2"
  top: "conv2"
}
layer {
  name: "pool2"
  type: "Pooling"
  bottom: "conv2"
  top: "pool2"
  pooling_param {
    pool: MAX
    kernel_size: 3
    stride: 2
  }
}
layer {
  name: "norm2"
  type: "LRN"
  bottom: "pool2"
  top: "norm2"
  lrn_param {
    local_size: 5
    alpha: 0.0001
    beta: 0.75
  }
}
layer {
  name: "conv3"
  type: "Convolution"
  bottom: "norm2"
  top: "conv3"
  param {
    lr_mult: 1
    decay_mult: 1
  }
  param {
    lr_mult: 2
    decay_mult: 0
  }
  convolution_param {
    num_output: 384
    pad: 1
    kernel_size: 3
    weight_filler {
      type: "gaussian"
      std: 0.01
    }
    bias_filler {
      type: "constant"
      value: 0
    }
  }
}
layer {
  name: "relu3"
  type: "ReLU"
  bottom: "conv3"
  top: "conv3"
}
layer {
  name: "conv4"
  type: "Convolution"
  bottom: "conv3"
  top: "conv4"
  param {
    lr_mult: 1
    decay_mult: 1
  }
  param {
    lr_mult: 2
    decay_mult: 0
  }
  convolution_param {
    num_output: 384
    pad: 1
    kernel_size: 3
    group: 2
    weight_filler {
      type: "gaussian"
      std: 0.01
    }
    bias_filler {
      type: "constant"
      value: 1
    }
  }
}
layer {
  name: "relu4"
  type: "ReLU"
  bottom: "conv4"
  top: "conv4"
}
layer {
  name: "conv5"
  type: "Convolution"
  bottom: "conv4"
  top: "conv5"
  param {
    lr_mult: 1
    decay_mult: 1
  }
  param {
    lr_mult: 2
    decay_mult: 0
  }
  convolution_param {
    num_output: 256
    pad: 1
    kernel_size: 3
    group: 2
    weight_filler {
      type: "gaussian"
      std: 0.01
    }
    bias_filler {
      type: "constant"
      value: 1
    }
  }
}
layer {
  name: "relu5"
  type: "ReLU"
  bottom: "conv5"
  top: "conv5"
}
layer {
  name: "pool5"
  type: "Pooling"
  bottom: "conv5"
  top: "pool5"
  pooling_param {
    pool: MAX
    kernel_size: 3
    stride: 2
  }
}
layer {
  name: "fc6"
  type: "InnerProduct"
  bottom: "pool5"
  top: "fc6"
  param {
    lr_mult: 1
    decay_mult: 1
  }
  param {
    lr_mult: 2
    decay_mult: 0
  }
  inner_product_param {
    num_output: 4096
    weight_filler {
      type: "gaussian"
      std: 0.005
    }
    bias_filler {
      type: "constant"
      value: 1
    }
  }
}
layer {
  name: "relu6"
  type: "ReLU"
  bottom: "fc6"
  top: "fc6"
}
layer {
  name: "drop6"
  type: "Dropout"
  bottom: "fc6"
  top: "fc6"
  dropout_param {
    dropout_ratio: 0.5
  }
}
layer {
  name: "fc7"
  type: "InnerProduct"
  bottom: "fc6"
  top: "fc7"
  param {
    lr_mult: 1
    decay_mult: 1
  }
  param {
    lr_mult: 2
    decay_mult: 0
  }
  inner_product_param {
    num_output: 4096
    weight_filler {
      type: "gaussian"
      std: 0.005
    }
    bias_filler {
      type: "constant"
      value: 1
    }
  }
}
layer {
  name: "relu7"
  type: "ReLU"
  bottom: "fc7"
  top: "fc7"
}
layer {
  name: "drop7"
  type: "Dropout"
  bottom: "fc7"
  top: "fc7"
  dropout_param {
    dropout_ratio: 0.5
  }
}
#layer {
#  name: "bottleneck"
#  type: "InnerProduct"
#  bottom: "fc7"
#  top: "bottleneck"
#  param {
#    lr_mult: 10
#    decay_mult: 1
#  }
#  param {
#    lr_mult: 20
#    decay_mult: 0
#  }
#  inner_product_param {
#    num_output: 256
#    weight_filler {
#      type: "gaussian"
#      std: 0.005
#    }
#    bias_filler {
#      type: "constant"
#      value: 0.1
#    }
#  }
#}
#layer {
#  name: "relu_bottleneck"
#  type: "ReLU"
#  bottom: "bottleneck"
#  top: "bottleneck"
#}
layer {
  name: "lp_fc8"
  type: "InnerProduct"
  bottom: "fc7"
  top: "features_fc8"
  param {
    lr_mult: 10
    decay_mult: 1
  }
  param {
    lr_mult: 20
    decay_mult: 0
  }
  inner_product_param {
    num_output: 256
    weight_filler {
      type: "gaussian"
      std: 0.01
    }
    bias_filler {
      type: "constant"
      value: 0
    }
  }
}
layer {
  name: "slice_features_fc7"
  type: "Slice"
  bottom: "features_fc8"
  top: "source_features_fc8"
  top: "target_features_fc8"
  slice_param {
    slice_dim: 0
  }
  include: { phase: TRAIN }
}
layer {
  name: "kill_target_features_fc8"
  type: "Silence"
  bottom: "target_features_fc8"
   include: { phase: TRAIN }
}
layer {
  name: "lp_accuracy"
  type: "Accuracy"
  bottom: "features_fc8"
  bottom: "lp_labels"
  top: "lp_accuracy"
  include: { phase: TEST }
}
layer {
  name: "lp_loss"
  type: "SoftmaxWithLoss"
  bottom: "source_features_fc8"
  bottom: "lp_labels"
  top: "lp_loss"
  softmax_param {
    temperature: 1.0
  }
  include: { phase: TRAIN }
}
layer {
  name: "softmax_feature"
  type: "Softmax"
  bottom: "target_features_fc8"
  top: "target_features_fc8s"
  include: { phase: TRAIN }
}
layer {
  name: "entropy_grl"
  type: "GradientScaler"
  bottom: "target_features_fc8s"
  top: "entropy_grl"
  gradient_scaler_param {
    lower_bound: 0.0
    upper_bound: 1.0
    alpha: 10.0
    max_iter: 3000
  }
  include: {phase: TRAIN}
}
layer {
  name: "entropy_loss"
  type: "EntropyLoss"
  bottom: "entropy_grl"
  #bottom: "target_labels"
  top: "entropy_loss"
  loss_weight: -0.1
  entropy_param {
    threshold: 0.001
  }
  include: { phase: TRAIN }
}


layer {
  name: "softmax_feature"
  type: "Softmax"
  bottom: "features_fc8"
  top: "features_fc8s"
  softmax_param{
    temperature: 10.0
  }
  include: { phase: TRAIN }
}

layer {
  name: "grl"
  type: "GradientScaler"
  bottom: "fc7"
  top: "grl"
  gradient_scaler_param {
    lower_bound: 0.0
    upper_bound: 1.0
    alpha: 10.0
    max_iter: 10000
  }
  include: { phase: TRAIN }
}
layer {
  name: "slice_grl"
  type: "Split"
  bottom: "grl"
  top: "grl0"
  top: "grl1"
  top: "grl2"
  top: "grl3"
  top: "grl4"
  top: "grl5"
  top: "grl6"
  top: "grl7"
  top: "grl8"
  top: "grl9"
  top: "grl10"
  top: "grl11"
  top: "grl12"
  top: "grl13"
  top: "grl14"
  top: "grl15"
  top: "grl16"
  top: "grl17"
  top: "grl18"
  top: "grl19"
  top: "grl20"
  top: "grl21"
  top: "grl22"
  top: "grl23"
  top: "grl24"
  top: "grl25"
  top: "grl26"
  top: "grl27"
  top: "grl28"
  top: "grl29"
  top: "grl30"
  top: "grl31"
  top: "grl32"
  top: "grl33"
  top: "grl34"
  top: "grl35"
  top: "grl36"
  top: "grl37"
  top: "grl38"
  top: "grl39"
  top: "grl40"
  top: "grl41"
  top: "grl42"
  top: "grl43"
  top: "grl44"
  top: "grl45"
  top: "grl46"
  top: "grl47"
  top: "grl48"
  top: "grl49"
  top: "grl50"
  top: "grl51"
  top: "grl52"
  top: "grl53"
  top: "grl54"
  top: "grl55"
  top: "grl56"
  top: "grl57"
  top: "grl58"
  top: "grl59"
  top: "grl60"
  top: "grl61"
  top: "grl62"
  top: "grl63"
  top: "grl64"
  top: "grl65"
  top: "grl66"
  top: "grl67"
  top: "grl68"
  top: "grl69"
  top: "grl70"
  top: "grl71"
  top: "grl72"
  top: "grl73"
  top: "grl74"
  top: "grl75"
  top: "grl76"
  top: "grl77"
  top: "grl78"
  top: "grl79"
  top: "grl80"
  top: "grl81"
  top: "grl82"
  top: "grl83"
  top: "grl84"
  top: "grl85"
  top: "grl86"
  top: "grl87"
  top: "grl88"
  top: "grl89"
  top: "grl90"
  top: "grl91"
  top: "grl92"
  top: "grl93"
  top: "grl94"
  top: "grl95"
  top: "grl96"
  top: "grl97"
  top: "grl98"
  top: "grl99"
  top: "grl100"
  top: "grl101"
  top: "grl102"
  top: "grl103"
  top: "grl104"
  top: "grl105"
  top: "grl106"
  top: "grl107"
  top: "grl108"
  top: "grl109"
  top: "grl110"
  top: "grl111"
  top: "grl112"
  top: "grl113"
  top: "grl114"
  top: "grl115"
  top: "grl116"
  top: "grl117"
  top: "grl118"
  top: "grl119"
  top: "grl120"
  top: "grl121"
  top: "grl122"
  top: "grl123"
  top: "grl124"
  top: "grl125"
  top: "grl126"
  top: "grl127"
  top: "grl128"
  top: "grl129"
  top: "grl130"
  top: "grl131"
  top: "grl132"
  top: "grl133"
  top: "grl134"
  top: "grl135"
  top: "grl136"
  top: "grl137"
  top: "grl138"
  top: "grl139"
  top: "grl140"
  top: "grl141"
  top: "grl142"
  top: "grl143"
  top: "grl144"
  top: "grl145"
  top: "grl146"
  top: "grl147"
  top: "grl148"
  top: "grl149"
  top: "grl150"
  top: "grl151"
  top: "grl152"
  top: "grl153"
  top: "grl154"
  top: "grl155"
  top: "grl156"
  top: "grl157"
  top: "grl158"
  top: "grl159"
  top: "grl160"
  top: "grl161"
  top: "grl162"
  top: "grl163"
  top: "grl164"
  top: "grl165"
  top: "grl166"
  top: "grl167"
  top: "grl168"
  top: "grl169"
  top: "grl170"
  top: "grl171"
  top: "grl172"
  top: "grl173"
  top: "grl174"
  top: "grl175"
  top: "grl176"
  top: "grl177"
  top: "grl178"
  top: "grl179"
  top: "grl180"
  top: "grl181"
  top: "grl182"
  top: "grl183"
  top: "grl184"
  top: "grl185"
  top: "grl186"
  top: "grl187"
  top: "grl188"
  top: "grl189"
  top: "grl190"
  top: "grl191"
  top: "grl192"
  top: "grl193"
  top: "grl194"
  top: "grl195"
  top: "grl196"
  top: "grl197"
  top: "grl198"
  top: "grl199"
  top: "grl200"
  top: "grl201"
  top: "grl202"
  top: "grl203"
  top: "grl204"
  top: "grl205"
  top: "grl206"
  top: "grl207"
  top: "grl208"
  top: "grl209"
  top: "grl210"
  top: "grl211"
  top: "grl212"
  top: "grl213"
  top: "grl214"
  top: "grl215"
  top: "grl216"
  top: "grl217"
  top: "grl218"
  top: "grl219"
  top: "grl220"
  top: "grl221"
  top: "grl222"
  top: "grl223"
  top: "grl224"
  top: "grl225"
  top: "grl226"
  top: "grl227"
  top: "grl228"
  top: "grl229"
  top: "grl230"
  top: "grl231"
  top: "grl232"
  top: "grl233"
  top: "grl234"
  top: "grl235"
  top: "grl236"
  top: "grl237"
  top: "grl238"
  top: "grl239"
  top: "grl240"
  top: "grl241"
  top: "grl242"
  top: "grl243"
  top: "grl244"
  top: "grl245"
  top: "grl246"
  top: "grl247"
  top: "grl248"
  top: "grl249"
  top: "grl250"
  top: "grl251"
  top: "grl252"
  top: "grl253"
  top: "grl254"
  top: "grl255"
  #slice_param {
  #  slice_dim: 1
  #}
  include: { phase: TRAIN }
}

layer {
  name: "aggregate_weight"
  type: "AggregateWeight"
  bottom: "features_fc8s"
  top: "weight0"
  top: "weight1"
  top: "weight2"
  top: "weight3"
  top: "weight4"
  top: "weight5"
  top: "weight6"
  top: "weight7"
  top: "weight8"
  top: "weight9"
  top: "weight10"
  top: "weight11"
  top: "weight12"
  top: "weight13"
  top: "weight14"
  top: "weight15"
  top: "weight16"
  top: "weight17"
  top: "weight18"
  top: "weight19"
  top: "weight20"
  top: "weight21"
  top: "weight22"
  top: "weight23"
  top: "weight24"
  top: "weight25"
  top: "weight26"
  top: "weight27"
  top: "weight28"
  top: "weight29"
  top: "weight30"
  top: "weight31"
  top: "weight32"
  top: "weight33"
  top: "weight34"
  top: "weight35"
  top: "weight36"
  top: "weight37"
  top: "weight38"
  top: "weight39"
  top: "weight40"
  top: "weight41"
  top: "weight42"
  top: "weight43"
  top: "weight44"
  top: "weight45"
  top: "weight46"
  top: "weight47"
  top: "weight48"
  top: "weight49"
  top: "weight50"
  top: "weight51"
  top: "weight52"
  top: "weight53"
  top: "weight54"
  top: "weight55"
  top: "weight56"
  top: "weight57"
  top: "weight58"
  top: "weight59"
  top: "weight60"
  top: "weight61"
  top: "weight62"
  top: "weight63"
  top: "weight64"
  top: "weight65"
  top: "weight66"
  top: "weight67"
  top: "weight68"
  top: "weight69"
  top: "weight70"
  top: "weight71"
  top: "weight72"
  top: "weight73"
  top: "weight74"
  top: "weight75"
  top: "weight76"
  top: "weight77"
  top: "weight78"
  top: "weight79"
  top: "weight80"
  top: "weight81"
  top: "weight82"
  top: "weight83"
  top: "weight84"
  top: "weight85"
  top: "weight86"
  top: "weight87"
  top: "weight88"
  top: "weight89"
  top: "weight90"
  top: "weight91"
  top: "weight92"
  top: "weight93"
  top: "weight94"
  top: "weight95"
  top: "weight96"
  top: "weight97"
  top: "weight98"
  top: "weight99"
  top: "weight100"
  top: "weight101"
  top: "weight102"
  top: "weight103"
  top: "weight104"
  top: "weight105"
  top: "weight106"
  top: "weight107"
  top: "weight108"
  top: "weight109"
  top: "weight110"
  top: "weight111"
  top: "weight112"
  top: "weight113"
  top: "weight114"
  top: "weight115"
  top: "weight116"
  top: "weight117"
  top: "weight118"
  top: "weight119"
  top: "weight120"
  top: "weight121"
  top: "weight122"
  top: "weight123"
  top: "weight124"
  top: "weight125"
  top: "weight126"
  top: "weight127"
  top: "weight128"
  top: "weight129"
  top: "weight130"
  top: "weight131"
  top: "weight132"
  top: "weight133"
  top: "weight134"
  top: "weight135"
  top: "weight136"
  top: "weight137"
  top: "weight138"
  top: "weight139"
  top: "weight140"
  top: "weight141"
  top: "weight142"
  top: "weight143"
  top: "weight144"
  top: "weight145"
  top: "weight146"
  top: "weight147"
  top: "weight148"
  top: "weight149"
  top: "weight150"
  top: "weight151"
  top: "weight152"
  top: "weight153"
  top: "weight154"
  top: "weight155"
  top: "weight156"
  top: "weight157"
  top: "weight158"
  top: "weight159"
  top: "weight160"
  top: "weight161"
  top: "weight162"
  top: "weight163"
  top: "weight164"
  top: "weight165"
  top: "weight166"
  top: "weight167"
  top: "weight168"
  top: "weight169"
  top: "weight170"
  top: "weight171"
  top: "weight172"
  top: "weight173"
  top: "weight174"
  top: "weight175"
  top: "weight176"
  top: "weight177"
  top: "weight178"
  top: "weight179"
  top: "weight180"
  top: "weight181"
  top: "weight182"
  top: "weight183"
  top: "weight184"
  top: "weight185"
  top: "weight186"
  top: "weight187"
  top: "weight188"
  top: "weight189"
  top: "weight190"
  top: "weight191"
  top: "weight192"
  top: "weight193"
  top: "weight194"
  top: "weight195"
  top: "weight196"
  top: "weight197"
  top: "weight198"
  top: "weight199"
  top: "weight200"
  top: "weight201"
  top: "weight202"
  top: "weight203"
  top: "weight204"
  top: "weight205"
  top: "weight206"
  top: "weight207"
  top: "weight208"
  top: "weight209"
  top: "weight210"
  top: "weight211"
  top: "weight212"
  top: "weight213"
  top: "weight214"
  top: "weight215"
  top: "weight216"
  top: "weight217"
  top: "weight218"
  top: "weight219"
  top: "weight220"
  top: "weight221"
  top: "weight222"
  top: "weight223"
  top: "weight224"
  top: "weight225"
  top: "weight226"
  top: "weight227"
  top: "weight228"
  top: "weight229"
  top: "weight230"
  top: "weight231"
  top: "weight232"
  top: "weight233"
  top: "weight234"
  top: "weight235"
  top: "weight236"
  top: "weight237"
  top: "weight238"
  top: "weight239"
  top: "weight240"
  top: "weight241"
  top: "weight242"
  top: "weight243"
  top: "weight244"
  top: "weight245"
  top: "weight246"
  top: "weight247"
  top: "weight248"
  top: "weight249"
  top: "weight250"
  top: "weight251"
  top: "weight252"
  top: "weight253"
  top: "weight254"
  top: "weight255"
  include {
    phase: TRAIN
  }
}
# end modified

layer {
  name: "dc_ip10"
  type: "InnerProduct"
  bottom: "grl0"
  top: "dc_ip10"
  param {
    #name: "ip1_1"
    lr_mult: 10
  }
  param {
    #name: "ip1_2"
    lr_mult: 20
  }
  inner_product_param {
    num_output: 256
    weight_filler {
      type: "gaussian"
      std: 0.01
    }
    bias_filler {
      type: "constant"
    }
  }
  include: { phase: TRAIN }
}
layer {
  name: "dc_relu10"
  type: "ReLU"
  bottom: "dc_ip10"
  top: "dc_ip10"
  include: { phase: TRAIN }
}
layer {
  name: "dc_drop10"
  type: "Dropout"
  bottom: "dc_ip10"
  top: "dc_ip10"
  dropout_param {
    dropout_ratio: 0.5
  }
  include: { phase: TRAIN }
}
#layer {
#  name: "dc_ip20"
#  type: "InnerProduct"
#  bottom: "dc_ip10"
#  top: "dc_ip20"
#  param {
#    #name: "ip2_1"
#    lr_mult: 10
#  }
#  param {
#    #name: "ip2_2"
#    lr_mult: 20
#  }
#  inner_product_param {
#    num_output: 1024
#    weight_filler {
#      type: "gaussian"
#      std: 0.01
#    }
#    bias_filler {
#      type: "constant"
#    }
#  }
#  include: { phase: TRAIN }
#}
#layer {
#  name: "dc_relu20"
#  type: "ReLU"
#  bottom: "dc_ip20"
#  top: "dc_ip20"
#  include: { phase: TRAIN }
#}
#layer {
#  name: "dc_drop20"
#  type: "Dropout"
#  bottom: "dc_ip20"
#  top: "dc_ip20"
#  dropout_param {
#    dropout_ratio: 0.5
#  }
#  include: { phase: TRAIN }
#}
layer {
  name: "dc_ip30"
  type: "InnerProduct"
  bottom: "dc_ip10"
  top: "dc_ip30"
  param {
    lr_mult: 10
  }
  param {
    lr_mult: 20
  }
  inner_product_param {
    num_output: 1
    weight_filler {
      type: "gaussian"
      std: 0.3
    }
    bias_filler {
      type: "constant"
    }
  }
  include: { phase: TRAIN }
}
layer {
  name: "dc_loss0"
  type: "SigmoidCrossEntropyLoss"
  bottom: "dc_ip30"
  bottom: "dc_labels"
  bottom: "weight0"
  top: "dc_loss0"
  loss_weight: 0.1
  include: { phase: TRAIN }
}
layer {
  name: "dc_ip11"
  type: "InnerProduct"
  bottom: "grl1"
  top: "dc_ip11"
  param {
    #name: "ip1_1"
    lr_mult: 10
  }
  param {
    #name: "ip1_2"
    lr_mult: 20
  }
  inner_product_param {
    num_output: 256
    weight_filler {
      type: "gaussian"
      std: 0.01
    }
    bias_filler {
      type: "constant"
    }
  }
  include: { phase: TRAIN }
}
layer {
  name: "dc_relu11"
  type: "ReLU"
  bottom: "dc_ip11"
  top: "dc_ip11"
  include: { phase: TRAIN }
}
layer {
  name: "dc_drop11"
  type: "Dropout"
  bottom: "dc_ip11"
  top: "dc_ip11"
  dropout_param {
    dropout_ratio: 0.5
  }
  include: { phase: TRAIN }
}
#layer {
#  name: "dc_ip21"
#  type: "InnerProduct"
#  bottom: "dc_ip11"
#  top: "dc_ip21"
#  param {
#    #name: "ip2_1"
#    lr_mult: 10
#  }
#  param {
#    #name: "ip2_2"
#    lr_mult: 20
#  }
#  inner_product_param {
#    num_output: 1024
#    weight_filler {
#      type: "gaussian"
#      std: 0.01
#    }
#    bias_filler {
#      type: "constant"
#    }
#  }
#  include: { phase: TRAIN }
#}
#layer {
#  name: "dc_relu21"
#  type: "ReLU"
#  bottom: "dc_ip21"
#  top: "dc_ip21"
#  include: { phase: TRAIN }
#}
#layer {
#  name: "dc_drop21"
#  type: "Dropout"
#  bottom: "dc_ip21"
#  top: "dc_ip21"
#  dropout_param {
#    dropout_ratio: 0.5
#  }
#  include: { phase: TRAIN }
#}
layer {
  name: "dc_ip31"
  type: "InnerProduct"
  bottom: "dc_ip11"
  top: "dc_ip31"
  param {
    lr_mult: 10
  }
  param {
    lr_mult: 20
  }
  inner_product_param {
    num_output: 1
    weight_filler {
      type: "gaussian"
      std: 0.3
    }
    bias_filler {
      type: "constant"
    }
  }
  include: { phase: TRAIN }
}
layer {
  name: "dc_loss1"
  type: "SigmoidCrossEntropyLoss"
  bottom: "dc_ip31"
  bottom: "dc_labels"
  bottom: "weight1"
  top: "dc_loss1"
  loss_weight: 0.1
  include: { phase: TRAIN }
}
layer {
  name: "dc_ip12"
  type: "InnerProduct"
  bottom: "grl2"
  top: "dc_ip12"
  param {
    #name: "ip1_1"
    lr_mult: 10
  }
  param {
    #name: "ip1_2"
    lr_mult: 20
  }
  inner_product_param {
    num_output: 256
    weight_filler {
      type: "gaussian"
      std: 0.01
    }
    bias_filler {
      type: "constant"
    }
  }
  include: { phase: TRAIN }
}
layer {
  name: "dc_relu12"
  type: "ReLU"
  bottom: "dc_ip12"
  top: "dc_ip12"
  include: { phase: TRAIN }
}
layer {
  name: "dc_drop12"
  type: "Dropout"
  bottom: "dc_ip12"
  top: "dc_ip12"
  dropout_param {
    dropout_ratio: 0.5
  }
  include: { phase: TRAIN }
}
#layer {
#  name: "dc_ip22"
#  type: "InnerProduct"
#  bottom: "dc_ip12"
#  top: "dc_ip22"
#  param {
#    #name: "ip2_1"
#    lr_mult: 10
#  }
#  param {
#    #name: "ip2_2"
#    lr_mult: 20
#  }
#  inner_product_param {
#    num_output: 1024
#    weight_filler {
#      type: "gaussian"
#      std: 0.01
#    }
#    bias_filler {
#      type: "constant"
#    }
#  }
#  include: { phase: TRAIN }
#}
#layer {
#  name: "dc_relu22"
#  type: "ReLU"
#  bottom: "dc_ip22"
#  top: "dc_ip22"
#  include: { phase: TRAIN }
#}
#layer {
#  name: "dc_drop22"
#  type: "Dropout"
#  bottom: "dc_ip22"
#  top: "dc_ip22"
#  dropout_param {
#    dropout_ratio: 0.5
#  }
#  include: { phase: TRAIN }
#}
layer {
  name: "dc_ip32"
  type: "InnerProduct"
  bottom: "dc_ip12"
  top: "dc_ip32"
  param {
    lr_mult: 10
  }
  param {
    lr_mult: 20
  }
  inner_product_param {
    num_output: 1
    weight_filler {
      type: "gaussian"
      std: 0.3
    }
    bias_filler {
      type: "constant"
    }
  }
  include: { phase: TRAIN }
}
layer {
  name: "dc_loss2"
  type: "SigmoidCrossEntropyLoss"
  bottom: "dc_ip32"
  bottom: "dc_labels"
  bottom: "weight2"
  top: "dc_loss2"
  loss_weight: 0.1
  include: { phase: TRAIN }
}
layer {
  name: "dc_ip13"
  type: "InnerProduct"
  bottom: "grl3"
  top: "dc_ip13"
  param {
    #name: "ip1_1"
    lr_mult: 10
  }
  param {
    #name: "ip1_2"
    lr_mult: 20
  }
  inner_product_param {
    num_output: 256
    weight_filler {
      type: "gaussian"
      std: 0.01
    }
    bias_filler {
      type: "constant"
    }
  }
  include: { phase: TRAIN }
}
layer {
  name: "dc_relu13"
  type: "ReLU"
  bottom: "dc_ip13"
  top: "dc_ip13"
  include: { phase: TRAIN }
}
layer {
  name: "dc_drop13"
  type: "Dropout"
  bottom: "dc_ip13"
  top: "dc_ip13"
  dropout_param {
    dropout_ratio: 0.5
  }
  include: { phase: TRAIN }
}
#layer {
#  name: "dc_ip23"
#  type: "InnerProduct"
#  bottom: "dc_ip13"
#  top: "dc_ip23"
#  param {
#    #name: "ip2_1"
#    lr_mult: 10
#  }
#  param {
#    #name: "ip2_2"
#    lr_mult: 20
#  }
#  inner_product_param {
#    num_output: 1024
#    weight_filler {
#      type: "gaussian"
#      std: 0.01
#    }
#    bias_filler {
#      type: "constant"
#    }
#  }
#  include: { phase: TRAIN }
#}
#layer {
#  name: "dc_relu23"
#  type: "ReLU"
#  bottom: "dc_ip23"
#  top: "dc_ip23"
#  include: { phase: TRAIN }
#}
#layer {
#  name: "dc_drop23"
#  type: "Dropout"
#  bottom: "dc_ip23"
#  top: "dc_ip23"
#  dropout_param {
#    dropout_ratio: 0.5
#  }
#  include: { phase: TRAIN }
#}
layer {
  name: "dc_ip33"
  type: "InnerProduct"
  bottom: "dc_ip13"
  top: "dc_ip33"
  param {
    lr_mult: 10
  }
  param {
    lr_mult: 20
  }
  inner_product_param {
    num_output: 1
    weight_filler {
      type: "gaussian"
      std: 0.3
    }
    bias_filler {
      type: "constant"
    }
  }
  include: { phase: TRAIN }
}
layer {
  name: "dc_loss3"
  type: "SigmoidCrossEntropyLoss"
  bottom: "dc_ip33"
  bottom: "dc_labels"
  bottom: "weight3"
  top: "dc_loss3"
  loss_weight: 0.1
  include: { phase: TRAIN }
}
layer {
  name: "dc_ip14"
  type: "InnerProduct"
  bottom: "grl4"
  top: "dc_ip14"
  param {
    #name: "ip1_1"
    lr_mult: 10
  }
  param {
    #name: "ip1_2"
    lr_mult: 20
  }
  inner_product_param {
    num_output: 256
    weight_filler {
      type: "gaussian"
      std: 0.01
    }
    bias_filler {
      type: "constant"
    }
  }
  include: { phase: TRAIN }
}
layer {
  name: "dc_relu14"
  type: "ReLU"
  bottom: "dc_ip14"
  top: "dc_ip14"
  include: { phase: TRAIN }
}
layer {
  name: "dc_drop14"
  type: "Dropout"
  bottom: "dc_ip14"
  top: "dc_ip14"
  dropout_param {
    dropout_ratio: 0.5
  }
  include: { phase: TRAIN }
}
#layer {
#  name: "dc_ip24"
#  type: "InnerProduct"
#  bottom: "dc_ip14"
#  top: "dc_ip24"
#  param {
#    #name: "ip2_1"
#    lr_mult: 10
#  }
#  param {
#    #name: "ip2_2"
#    lr_mult: 20
#  }
#  inner_product_param {
#    num_output: 1024
#    weight_filler {
#      type: "gaussian"
#      std: 0.01
#    }
#    bias_filler {
#      type: "constant"
#    }
#  }
#  include: { phase: TRAIN }
#}
#layer {
#  name: "dc_relu24"
#  type: "ReLU"
#  bottom: "dc_ip24"
#  top: "dc_ip24"
#  include: { phase: TRAIN }
#}
#layer {
#  name: "dc_drop24"
#  type: "Dropout"
#  bottom: "dc_ip24"
#  top: "dc_ip24"
#  dropout_param {
#    dropout_ratio: 0.5
#  }
#  include: { phase: TRAIN }
#}
layer {
  name: "dc_ip34"
  type: "InnerProduct"
  bottom: "dc_ip14"
  top: "dc_ip34"
  param {
    lr_mult: 10
  }
  param {
    lr_mult: 20
  }
  inner_product_param {
    num_output: 1
    weight_filler {
      type: "gaussian"
      std: 0.3
    }
    bias_filler {
      type: "constant"
    }
  }
  include: { phase: TRAIN }
}
layer {
  name: "dc_loss4"
  type: "SigmoidCrossEntropyLoss"
  bottom: "dc_ip34"
  bottom: "dc_labels"
  bottom: "weight4"
  top: "dc_loss4"
  loss_weight: 0.1
  include: { phase: TRAIN }
}
layer {
  name: "dc_ip15"
  type: "InnerProduct"
  bottom: "grl5"
  top: "dc_ip15"
  param {
    #name: "ip1_1"
    lr_mult: 10
  }
  param {
    #name: "ip1_2"
    lr_mult: 20
  }
  inner_product_param {
    num_output: 256
    weight_filler {
      type: "gaussian"
      std: 0.01
    }
    bias_filler {
      type: "constant"
    }
  }
  include: { phase: TRAIN }
}
layer {
  name: "dc_relu15"
  type: "ReLU"
  bottom: "dc_ip15"
  top: "dc_ip15"
  include: { phase: TRAIN }
}
layer {
  name: "dc_drop15"
  type: "Dropout"
  bottom: "dc_ip15"
  top: "dc_ip15"
  dropout_param {
    dropout_ratio: 0.5
  }
  include: { phase: TRAIN }
}
#layer {
#  name: "dc_ip25"
#  type: "InnerProduct"
#  bottom: "dc_ip15"
#  top: "dc_ip25"
#  param {
#    #name: "ip2_1"
#    lr_mult: 10
#  }
#  param {
#    #name: "ip2_2"
#    lr_mult: 20
#  }
#  inner_product_param {
#    num_output: 1024
#    weight_filler {
#      type: "gaussian"
#      std: 0.01
#    }
#    bias_filler {
#      type: "constant"
#    }
#  }
#  include: { phase: TRAIN }
#}
#layer {
#  name: "dc_relu25"
#  type: "ReLU"
#  bottom: "dc_ip25"
#  top: "dc_ip25"
#  include: { phase: TRAIN }
#}
#layer {
#  name: "dc_drop25"
#  type: "Dropout"
#  bottom: "dc_ip25"
#  top: "dc_ip25"
#  dropout_param {
#    dropout_ratio: 0.5
#  }
#  include: { phase: TRAIN }
#}
layer {
  name: "dc_ip35"
  type: "InnerProduct"
  bottom: "dc_ip15"
  top: "dc_ip35"
  param {
    lr_mult: 10
  }
  param {
    lr_mult: 20
  }
  inner_product_param {
    num_output: 1
    weight_filler {
      type: "gaussian"
      std: 0.3
    }
    bias_filler {
      type: "constant"
    }
  }
  include: { phase: TRAIN }
}
layer {
  name: "dc_loss5"
  type: "SigmoidCrossEntropyLoss"
  bottom: "dc_ip35"
  bottom: "dc_labels"
  bottom: "weight5"
  top: "dc_loss5"
  loss_weight: 0.1
  include: { phase: TRAIN }
}
layer {
  name: "dc_ip16"
  type: "InnerProduct"
  bottom: "grl6"
  top: "dc_ip16"
  param {
    #name: "ip1_1"
    lr_mult: 10
  }
  param {
    #name: "ip1_2"
    lr_mult: 20
  }
  inner_product_param {
    num_output: 256
    weight_filler {
      type: "gaussian"
      std: 0.01
    }
    bias_filler {
      type: "constant"
    }
  }
  include: { phase: TRAIN }
}
layer {
  name: "dc_relu16"
  type: "ReLU"
  bottom: "dc_ip16"
  top: "dc_ip16"
  include: { phase: TRAIN }
}
layer {
  name: "dc_drop16"
  type: "Dropout"
  bottom: "dc_ip16"
  top: "dc_ip16"
  dropout_param {
    dropout_ratio: 0.5
  }
  include: { phase: TRAIN }
}
#layer {
#  name: "dc_ip26"
#  type: "InnerProduct"
#  bottom: "dc_ip16"
#  top: "dc_ip26"
#  param {
#    #name: "ip2_1"
#    lr_mult: 10
#  }
#  param {
#    #name: "ip2_2"
#    lr_mult: 20
#  }
#  inner_product_param {
#    num_output: 1024
#    weight_filler {
#      type: "gaussian"
#      std: 0.01
#    }
#    bias_filler {
#      type: "constant"
#    }
#  }
#  include: { phase: TRAIN }
#}
#layer {
#  name: "dc_relu26"
#  type: "ReLU"
#  bottom: "dc_ip26"
#  top: "dc_ip26"
#  include: { phase: TRAIN }
#}
#layer {
#  name: "dc_drop26"
#  type: "Dropout"
#  bottom: "dc_ip26"
#  top: "dc_ip26"
#  dropout_param {
#    dropout_ratio: 0.5
#  }
#  include: { phase: TRAIN }
#}
layer {
  name: "dc_ip36"
  type: "InnerProduct"
  bottom: "dc_ip16"
  top: "dc_ip36"
  param {
    lr_mult: 10
  }
  param {
    lr_mult: 20
  }
  inner_product_param {
    num_output: 1
    weight_filler {
      type: "gaussian"
      std: 0.3
    }
    bias_filler {
      type: "constant"
    }
  }
  include: { phase: TRAIN }
}
layer {
  name: "dc_loss6"
  type: "SigmoidCrossEntropyLoss"
  bottom: "dc_ip36"
  bottom: "dc_labels"
  bottom: "weight6"
  top: "dc_loss6"
  loss_weight: 0.1
  include: { phase: TRAIN }
}
layer {
  name: "dc_ip17"
  type: "InnerProduct"
  bottom: "grl7"
  top: "dc_ip17"
  param {
    #name: "ip1_1"
    lr_mult: 10
  }
  param {
    #name: "ip1_2"
    lr_mult: 20
  }
  inner_product_param {
    num_output: 256
    weight_filler {
      type: "gaussian"
      std: 0.01
    }
    bias_filler {
      type: "constant"
    }
  }
  include: { phase: TRAIN }
}
layer {
  name: "dc_relu17"
  type: "ReLU"
  bottom: "dc_ip17"
  top: "dc_ip17"
  include: { phase: TRAIN }
}
layer {
  name: "dc_drop17"
  type: "Dropout"
  bottom: "dc_ip17"
  top: "dc_ip17"
  dropout_param {
    dropout_ratio: 0.5
  }
  include: { phase: TRAIN }
}
#layer {
#  name: "dc_ip27"
#  type: "InnerProduct"
#  bottom: "dc_ip17"
#  top: "dc_ip27"
#  param {
#    #name: "ip2_1"
#    lr_mult: 10
#  }
#  param {
#    #name: "ip2_2"
#    lr_mult: 20
#  }
#  inner_product_param {
#    num_output: 1024
#    weight_filler {
#      type: "gaussian"
#      std: 0.01
#    }
#    bias_filler {
#      type: "constant"
#    }
#  }
#  include: { phase: TRAIN }
#}
#layer {
#  name: "dc_relu27"
#  type: "ReLU"
#  bottom: "dc_ip27"
#  top: "dc_ip27"
#  include: { phase: TRAIN }
#}
#layer {
#  name: "dc_drop27"
#  type: "Dropout"
#  bottom: "dc_ip27"
#  top: "dc_ip27"
#  dropout_param {
#    dropout_ratio: 0.5
#  }
#  include: { phase: TRAIN }
#}
layer {
  name: "dc_ip37"
  type: "InnerProduct"
  bottom: "dc_ip17"
  top: "dc_ip37"
  param {
    lr_mult: 10
  }
  param {
    lr_mult: 20
  }
  inner_product_param {
    num_output: 1
    weight_filler {
      type: "gaussian"
      std: 0.3
    }
    bias_filler {
      type: "constant"
    }
  }
  include: { phase: TRAIN }
}
layer {
  name: "dc_loss7"
  type: "SigmoidCrossEntropyLoss"
  bottom: "dc_ip37"
  bottom: "dc_labels"
  bottom: "weight7"
  top: "dc_loss7"
  loss_weight: 0.1
  include: { phase: TRAIN }
}
layer {
  name: "dc_ip18"
  type: "InnerProduct"
  bottom: "grl8"
  top: "dc_ip18"
  param {
    #name: "ip1_1"
    lr_mult: 10
  }
  param {
    #name: "ip1_2"
    lr_mult: 20
  }
  inner_product_param {
    num_output: 256
    weight_filler {
      type: "gaussian"
      std: 0.01
    }
    bias_filler {
      type: "constant"
    }
  }
  include: { phase: TRAIN }
}
layer {
  name: "dc_relu18"
  type: "ReLU"
  bottom: "dc_ip18"
  top: "dc_ip18"
  include: { phase: TRAIN }
}
layer {
  name: "dc_drop18"
  type: "Dropout"
  bottom: "dc_ip18"
  top: "dc_ip18"
  dropout_param {
    dropout_ratio: 0.5
  }
  include: { phase: TRAIN }
}
#layer {
#  name: "dc_ip28"
#  type: "InnerProduct"
#  bottom: "dc_ip18"
#  top: "dc_ip28"
#  param {
#    #name: "ip2_1"
#    lr_mult: 10
#  }
#  param {
#    #name: "ip2_2"
#    lr_mult: 20
#  }
#  inner_product_param {
#    num_output: 1024
#    weight_filler {
#      type: "gaussian"
#      std: 0.01
#    }
#    bias_filler {
#      type: "constant"
#    }
#  }
#  include: { phase: TRAIN }
#}
#layer {
#  name: "dc_relu28"
#  type: "ReLU"
#  bottom: "dc_ip28"
#  top: "dc_ip28"
#  include: { phase: TRAIN }
#}
#layer {
#  name: "dc_drop28"
#  type: "Dropout"
#  bottom: "dc_ip28"
#  top: "dc_ip28"
#  dropout_param {
#    dropout_ratio: 0.5
#  }
#  include: { phase: TRAIN }
#}
layer {
  name: "dc_ip38"
  type: "InnerProduct"
  bottom: "dc_ip18"
  top: "dc_ip38"
  param {
    lr_mult: 10
  }
  param {
    lr_mult: 20
  }
  inner_product_param {
    num_output: 1
    weight_filler {
      type: "gaussian"
      std: 0.3
    }
    bias_filler {
      type: "constant"
    }
  }
  include: { phase: TRAIN }
}
layer {
  name: "dc_loss8"
  type: "SigmoidCrossEntropyLoss"
  bottom: "dc_ip38"
  bottom: "dc_labels"
  bottom: "weight8"
  top: "dc_loss8"
  loss_weight: 0.1
  include: { phase: TRAIN }
}
layer {
  name: "dc_ip19"
  type: "InnerProduct"
  bottom: "grl9"
  top: "dc_ip19"
  param {
    #name: "ip1_1"
    lr_mult: 10
  }
  param {
    #name: "ip1_2"
    lr_mult: 20
  }
  inner_product_param {
    num_output: 256
    weight_filler {
      type: "gaussian"
      std: 0.01
    }
    bias_filler {
      type: "constant"
    }
  }
  include: { phase: TRAIN }
}
layer {
  name: "dc_relu19"
  type: "ReLU"
  bottom: "dc_ip19"
  top: "dc_ip19"
  include: { phase: TRAIN }
}
layer {
  name: "dc_drop19"
  type: "Dropout"
  bottom: "dc_ip19"
  top: "dc_ip19"
  dropout_param {
    dropout_ratio: 0.5
  }
  include: { phase: TRAIN }
}
#layer {
#  name: "dc_ip29"
#  type: "InnerProduct"
#  bottom: "dc_ip19"
#  top: "dc_ip29"
#  param {
#    #name: "ip2_1"
#    lr_mult: 10
#  }
#  param {
#    #name: "ip2_2"
#    lr_mult: 20
#  }
#  inner_product_param {
#    num_output: 1024
#    weight_filler {
#      type: "gaussian"
#      std: 0.01
#    }
#    bias_filler {
#      type: "constant"
#    }
#  }
#  include: { phase: TRAIN }
#}
#layer {
#  name: "dc_relu29"
#  type: "ReLU"
#  bottom: "dc_ip29"
#  top: "dc_ip29"
#  include: { phase: TRAIN }
#}
#layer {
#  name: "dc_drop29"
#  type: "Dropout"
#  bottom: "dc_ip29"
#  top: "dc_ip29"
#  dropout_param {
#    dropout_ratio: 0.5
#  }
#  include: { phase: TRAIN }
#}
layer {
  name: "dc_ip39"
  type: "InnerProduct"
  bottom: "dc_ip19"
  top: "dc_ip39"
  param {
    lr_mult: 10
  }
  param {
    lr_mult: 20
  }
  inner_product_param {
    num_output: 1
    weight_filler {
      type: "gaussian"
      std: 0.3
    }
    bias_filler {
      type: "constant"
    }
  }
  include: { phase: TRAIN }
}
layer {
  name: "dc_loss9"
  type: "SigmoidCrossEntropyLoss"
  bottom: "dc_ip39"
  bottom: "dc_labels"
  bottom: "weight9"
  top: "dc_loss9"
  loss_weight: 0.1
  include: { phase: TRAIN }
}
layer {
  name: "dc_ip110"
  type: "InnerProduct"
  bottom: "grl10"
  top: "dc_ip110"
  param {
    #name: "ip1_1"
    lr_mult: 10
  }
  param {
    #name: "ip1_2"
    lr_mult: 20
  }
  inner_product_param {
    num_output: 256
    weight_filler {
      type: "gaussian"
      std: 0.01
    }
    bias_filler {
      type: "constant"
    }
  }
  include: { phase: TRAIN }
}
layer {
  name: "dc_relu110"
  type: "ReLU"
  bottom: "dc_ip110"
  top: "dc_ip110"
  include: { phase: TRAIN }
}
layer {
  name: "dc_drop110"
  type: "Dropout"
  bottom: "dc_ip110"
  top: "dc_ip110"
  dropout_param {
    dropout_ratio: 0.5
  }
  include: { phase: TRAIN }
}
#layer {
#  name: "dc_ip210"
#  type: "InnerProduct"
#  bottom: "dc_ip110"
#  top: "dc_ip210"
#  param {
#    #name: "ip2_1"
#    lr_mult: 10
#  }
#  param {
#    #name: "ip2_2"
#    lr_mult: 20
#  }
#  inner_product_param {
#    num_output: 1024
#    weight_filler {
#      type: "gaussian"
#      std: 0.01
#    }
#    bias_filler {
#      type: "constant"
#    }
#  }
#  include: { phase: TRAIN }
#}
#layer {
#  name: "dc_relu210"
#  type: "ReLU"
#  bottom: "dc_ip210"
#  top: "dc_ip210"
#  include: { phase: TRAIN }
#}
#layer {
#  name: "dc_drop210"
#  type: "Dropout"
#  bottom: "dc_ip210"
#  top: "dc_ip210"
#  dropout_param {
#    dropout_ratio: 0.5
#  }
#  include: { phase: TRAIN }
#}
layer {
  name: "dc_ip310"
  type: "InnerProduct"
  bottom: "dc_ip110"
  top: "dc_ip310"
  param {
    lr_mult: 10
  }
  param {
    lr_mult: 20
  }
  inner_product_param {
    num_output: 1
    weight_filler {
      type: "gaussian"
      std: 0.3
    }
    bias_filler {
      type: "constant"
    }
  }
  include: { phase: TRAIN }
}
layer {
  name: "dc_loss10"
  type: "SigmoidCrossEntropyLoss"
  bottom: "dc_ip310"
  bottom: "dc_labels"
  bottom: "weight10"
  top: "dc_loss10"
  loss_weight: 0.1
  include: { phase: TRAIN }
}
layer {
  name: "dc_ip111"
  type: "InnerProduct"
  bottom: "grl11"
  top: "dc_ip111"
  param {
    #name: "ip1_1"
    lr_mult: 10
  }
  param {
    #name: "ip1_2"
    lr_mult: 20
  }
  inner_product_param {
    num_output: 256
    weight_filler {
      type: "gaussian"
      std: 0.01
    }
    bias_filler {
      type: "constant"
    }
  }
  include: { phase: TRAIN }
}
layer {
  name: "dc_relu111"
  type: "ReLU"
  bottom: "dc_ip111"
  top: "dc_ip111"
  include: { phase: TRAIN }
}
layer {
  name: "dc_drop111"
  type: "Dropout"
  bottom: "dc_ip111"
  top: "dc_ip111"
  dropout_param {
    dropout_ratio: 0.5
  }
  include: { phase: TRAIN }
}
#layer {
#  name: "dc_ip211"
#  type: "InnerProduct"
#  bottom: "dc_ip111"
#  top: "dc_ip211"
#  param {
#    #name: "ip2_1"
#    lr_mult: 10
#  }
#  param {
#    #name: "ip2_2"
#    lr_mult: 20
#  }
#  inner_product_param {
#    num_output: 1024
#    weight_filler {
#      type: "gaussian"
#      std: 0.01
#    }
#    bias_filler {
#      type: "constant"
#    }
#  }
#  include: { phase: TRAIN }
#}
#layer {
#  name: "dc_relu211"
#  type: "ReLU"
#  bottom: "dc_ip211"
#  top: "dc_ip211"
#  include: { phase: TRAIN }
#}
#layer {
#  name: "dc_drop211"
#  type: "Dropout"
#  bottom: "dc_ip211"
#  top: "dc_ip211"
#  dropout_param {
#    dropout_ratio: 0.5
#  }
#  include: { phase: TRAIN }
#}
layer {
  name: "dc_ip311"
  type: "InnerProduct"
  bottom: "dc_ip111"
  top: "dc_ip311"
  param {
    lr_mult: 10
  }
  param {
    lr_mult: 20
  }
  inner_product_param {
    num_output: 1
    weight_filler {
      type: "gaussian"
      std: 0.3
    }
    bias_filler {
      type: "constant"
    }
  }
  include: { phase: TRAIN }
}
layer {
  name: "dc_loss11"
  type: "SigmoidCrossEntropyLoss"
  bottom: "dc_ip311"
  bottom: "dc_labels"
  bottom: "weight11"
  top: "dc_loss11"
  loss_weight: 0.1
  include: { phase: TRAIN }
}
layer {
  name: "dc_ip112"
  type: "InnerProduct"
  bottom: "grl12"
  top: "dc_ip112"
  param {
    #name: "ip1_1"
    lr_mult: 10
  }
  param {
    #name: "ip1_2"
    lr_mult: 20
  }
  inner_product_param {
    num_output: 256
    weight_filler {
      type: "gaussian"
      std: 0.01
    }
    bias_filler {
      type: "constant"
    }
  }
  include: { phase: TRAIN }
}
layer {
  name: "dc_relu112"
  type: "ReLU"
  bottom: "dc_ip112"
  top: "dc_ip112"
  include: { phase: TRAIN }
}
layer {
  name: "dc_drop112"
  type: "Dropout"
  bottom: "dc_ip112"
  top: "dc_ip112"
  dropout_param {
    dropout_ratio: 0.5
  }
  include: { phase: TRAIN }
}
#layer {
#  name: "dc_ip212"
#  type: "InnerProduct"
#  bottom: "dc_ip112"
#  top: "dc_ip212"
#  param {
#    #name: "ip2_1"
#    lr_mult: 10
#  }
#  param {
#    #name: "ip2_2"
#    lr_mult: 20
#  }
#  inner_product_param {
#    num_output: 1024
#    weight_filler {
#      type: "gaussian"
#      std: 0.01
#    }
#    bias_filler {
#      type: "constant"
#    }
#  }
#  include: { phase: TRAIN }
#}
#layer {
#  name: "dc_relu212"
#  type: "ReLU"
#  bottom: "dc_ip212"
#  top: "dc_ip212"
#  include: { phase: TRAIN }
#}
#layer {
#  name: "dc_drop212"
#  type: "Dropout"
#  bottom: "dc_ip212"
#  top: "dc_ip212"
#  dropout_param {
#    dropout_ratio: 0.5
#  }
#  include: { phase: TRAIN }
#}
layer {
  name: "dc_ip312"
  type: "InnerProduct"
  bottom: "dc_ip112"
  top: "dc_ip312"
  param {
    lr_mult: 10
  }
  param {
    lr_mult: 20
  }
  inner_product_param {
    num_output: 1
    weight_filler {
      type: "gaussian"
      std: 0.3
    }
    bias_filler {
      type: "constant"
    }
  }
  include: { phase: TRAIN }
}
layer {
  name: "dc_loss12"
  type: "SigmoidCrossEntropyLoss"
  bottom: "dc_ip312"
  bottom: "dc_labels"
  bottom: "weight12"
  top: "dc_loss12"
  loss_weight: 0.1
  include: { phase: TRAIN }
}
layer {
  name: "dc_ip113"
  type: "InnerProduct"
  bottom: "grl13"
  top: "dc_ip113"
  param {
    #name: "ip1_1"
    lr_mult: 10
  }
  param {
    #name: "ip1_2"
    lr_mult: 20
  }
  inner_product_param {
    num_output: 256
    weight_filler {
      type: "gaussian"
      std: 0.01
    }
    bias_filler {
      type: "constant"
    }
  }
  include: { phase: TRAIN }
}
layer {
  name: "dc_relu113"
  type: "ReLU"
  bottom: "dc_ip113"
  top: "dc_ip113"
  include: { phase: TRAIN }
}
layer {
  name: "dc_drop113"
  type: "Dropout"
  bottom: "dc_ip113"
  top: "dc_ip113"
  dropout_param {
    dropout_ratio: 0.5
  }
  include: { phase: TRAIN }
}
#layer {
#  name: "dc_ip213"
#  type: "InnerProduct"
#  bottom: "dc_ip113"
#  top: "dc_ip213"
#  param {
#    #name: "ip2_1"
#    lr_mult: 10
#  }
#  param {
#    #name: "ip2_2"
#    lr_mult: 20
#  }
#  inner_product_param {
#    num_output: 1024
#    weight_filler {
#      type: "gaussian"
#      std: 0.01
#    }
#    bias_filler {
#      type: "constant"
#    }
#  }
#  include: { phase: TRAIN }
#}
#layer {
#  name: "dc_relu213"
#  type: "ReLU"
#  bottom: "dc_ip213"
#  top: "dc_ip213"
#  include: { phase: TRAIN }
#}
#layer {
#  name: "dc_drop213"
#  type: "Dropout"
#  bottom: "dc_ip213"
#  top: "dc_ip213"
#  dropout_param {
#    dropout_ratio: 0.5
#  }
#  include: { phase: TRAIN }
#}
layer {
  name: "dc_ip313"
  type: "InnerProduct"
  bottom: "dc_ip113"
  top: "dc_ip313"
  param {
    lr_mult: 10
  }
  param {
    lr_mult: 20
  }
  inner_product_param {
    num_output: 1
    weight_filler {
      type: "gaussian"
      std: 0.3
    }
    bias_filler {
      type: "constant"
    }
  }
  include: { phase: TRAIN }
}
layer {
  name: "dc_loss13"
  type: "SigmoidCrossEntropyLoss"
  bottom: "dc_ip313"
  bottom: "dc_labels"
  bottom: "weight13"
  top: "dc_loss13"
  loss_weight: 0.1
  include: { phase: TRAIN }
}
layer {
  name: "dc_ip114"
  type: "InnerProduct"
  bottom: "grl14"
  top: "dc_ip114"
  param {
    #name: "ip1_1"
    lr_mult: 10
  }
  param {
    #name: "ip1_2"
    lr_mult: 20
  }
  inner_product_param {
    num_output: 256
    weight_filler {
      type: "gaussian"
      std: 0.01
    }
    bias_filler {
      type: "constant"
    }
  }
  include: { phase: TRAIN }
}
layer {
  name: "dc_relu114"
  type: "ReLU"
  bottom: "dc_ip114"
  top: "dc_ip114"
  include: { phase: TRAIN }
}
layer {
  name: "dc_drop114"
  type: "Dropout"
  bottom: "dc_ip114"
  top: "dc_ip114"
  dropout_param {
    dropout_ratio: 0.5
  }
  include: { phase: TRAIN }
}
#layer {
#  name: "dc_ip214"
#  type: "InnerProduct"
#  bottom: "dc_ip114"
#  top: "dc_ip214"
#  param {
#    #name: "ip2_1"
#    lr_mult: 10
#  }
#  param {
#    #name: "ip2_2"
#    lr_mult: 20
#  }
#  inner_product_param {
#    num_output: 1024
#    weight_filler {
#      type: "gaussian"
#      std: 0.01
#    }
#    bias_filler {
#      type: "constant"
#    }
#  }
#  include: { phase: TRAIN }
#}
#layer {
#  name: "dc_relu214"
#  type: "ReLU"
#  bottom: "dc_ip214"
#  top: "dc_ip214"
#  include: { phase: TRAIN }
#}
#layer {
#  name: "dc_drop214"
#  type: "Dropout"
#  bottom: "dc_ip214"
#  top: "dc_ip214"
#  dropout_param {
#    dropout_ratio: 0.5
#  }
#  include: { phase: TRAIN }
#}
layer {
  name: "dc_ip314"
  type: "InnerProduct"
  bottom: "dc_ip114"
  top: "dc_ip314"
  param {
    lr_mult: 10
  }
  param {
    lr_mult: 20
  }
  inner_product_param {
    num_output: 1
    weight_filler {
      type: "gaussian"
      std: 0.3
    }
    bias_filler {
      type: "constant"
    }
  }
  include: { phase: TRAIN }
}
layer {
  name: "dc_loss14"
  type: "SigmoidCrossEntropyLoss"
  bottom: "dc_ip314"
  bottom: "dc_labels"
  bottom: "weight14"
  top: "dc_loss14"
  loss_weight: 0.1
  include: { phase: TRAIN }
}
layer {
  name: "dc_ip115"
  type: "InnerProduct"
  bottom: "grl15"
  top: "dc_ip115"
  param {
    #name: "ip1_1"
    lr_mult: 10
  }
  param {
    #name: "ip1_2"
    lr_mult: 20
  }
  inner_product_param {
    num_output: 256
    weight_filler {
      type: "gaussian"
      std: 0.01
    }
    bias_filler {
      type: "constant"
    }
  }
  include: { phase: TRAIN }
}
layer {
  name: "dc_relu115"
  type: "ReLU"
  bottom: "dc_ip115"
  top: "dc_ip115"
  include: { phase: TRAIN }
}
layer {
  name: "dc_drop115"
  type: "Dropout"
  bottom: "dc_ip115"
  top: "dc_ip115"
  dropout_param {
    dropout_ratio: 0.5
  }
  include: { phase: TRAIN }
}
#layer {
#  name: "dc_ip215"
#  type: "InnerProduct"
#  bottom: "dc_ip115"
#  top: "dc_ip215"
#  param {
#    #name: "ip2_1"
#    lr_mult: 10
#  }
#  param {
#    #name: "ip2_2"
#    lr_mult: 20
#  }
#  inner_product_param {
#    num_output: 1024
#    weight_filler {
#      type: "gaussian"
#      std: 0.01
#    }
#    bias_filler {
#      type: "constant"
#    }
#  }
#  include: { phase: TRAIN }
#}
#layer {
#  name: "dc_relu215"
#  type: "ReLU"
#  bottom: "dc_ip215"
#  top: "dc_ip215"
#  include: { phase: TRAIN }
#}
#layer {
#  name: "dc_drop215"
#  type: "Dropout"
#  bottom: "dc_ip215"
#  top: "dc_ip215"
#  dropout_param {
#    dropout_ratio: 0.5
#  }
#  include: { phase: TRAIN }
#}
layer {
  name: "dc_ip315"
  type: "InnerProduct"
  bottom: "dc_ip115"
  top: "dc_ip315"
  param {
    lr_mult: 10
  }
  param {
    lr_mult: 20
  }
  inner_product_param {
    num_output: 1
    weight_filler {
      type: "gaussian"
      std: 0.3
    }
    bias_filler {
      type: "constant"
    }
  }
  include: { phase: TRAIN }
}
layer {
  name: "dc_loss15"
  type: "SigmoidCrossEntropyLoss"
  bottom: "dc_ip315"
  bottom: "dc_labels"
  bottom: "weight15"
  top: "dc_loss15"
  loss_weight: 0.1
  include: { phase: TRAIN }
}
layer {
  name: "dc_ip116"
  type: "InnerProduct"
  bottom: "grl16"
  top: "dc_ip116"
  param {
    #name: "ip1_1"
    lr_mult: 10
  }
  param {
    #name: "ip1_2"
    lr_mult: 20
  }
  inner_product_param {
    num_output: 256
    weight_filler {
      type: "gaussian"
      std: 0.01
    }
    bias_filler {
      type: "constant"
    }
  }
  include: { phase: TRAIN }
}
layer {
  name: "dc_relu116"
  type: "ReLU"
  bottom: "dc_ip116"
  top: "dc_ip116"
  include: { phase: TRAIN }
}
layer {
  name: "dc_drop116"
  type: "Dropout"
  bottom: "dc_ip116"
  top: "dc_ip116"
  dropout_param {
    dropout_ratio: 0.5
  }
  include: { phase: TRAIN }
}
#layer {
#  name: "dc_ip216"
#  type: "InnerProduct"
#  bottom: "dc_ip116"
#  top: "dc_ip216"
#  param {
#    #name: "ip2_1"
#    lr_mult: 10
#  }
#  param {
#    #name: "ip2_2"
#    lr_mult: 20
#  }
#  inner_product_param {
#    num_output: 1024
#    weight_filler {
#      type: "gaussian"
#      std: 0.01
#    }
#    bias_filler {
#      type: "constant"
#    }
#  }
#  include: { phase: TRAIN }
#}
#layer {
#  name: "dc_relu216"
#  type: "ReLU"
#  bottom: "dc_ip216"
#  top: "dc_ip216"
#  include: { phase: TRAIN }
#}
#layer {
#  name: "dc_drop216"
#  type: "Dropout"
#  bottom: "dc_ip216"
#  top: "dc_ip216"
#  dropout_param {
#    dropout_ratio: 0.5
#  }
#  include: { phase: TRAIN }
#}
layer {
  name: "dc_ip316"
  type: "InnerProduct"
  bottom: "dc_ip116"
  top: "dc_ip316"
  param {
    lr_mult: 10
  }
  param {
    lr_mult: 20
  }
  inner_product_param {
    num_output: 1
    weight_filler {
      type: "gaussian"
      std: 0.3
    }
    bias_filler {
      type: "constant"
    }
  }
  include: { phase: TRAIN }
}
layer {
  name: "dc_loss16"
  type: "SigmoidCrossEntropyLoss"
  bottom: "dc_ip316"
  bottom: "dc_labels"
  bottom: "weight16"
  top: "dc_loss16"
  loss_weight: 0.1
  include: { phase: TRAIN }
}
layer {
  name: "dc_ip117"
  type: "InnerProduct"
  bottom: "grl17"
  top: "dc_ip117"
  param {
    #name: "ip1_1"
    lr_mult: 10
  }
  param {
    #name: "ip1_2"
    lr_mult: 20
  }
  inner_product_param {
    num_output: 256
    weight_filler {
      type: "gaussian"
      std: 0.01
    }
    bias_filler {
      type: "constant"
    }
  }
  include: { phase: TRAIN }
}
layer {
  name: "dc_relu117"
  type: "ReLU"
  bottom: "dc_ip117"
  top: "dc_ip117"
  include: { phase: TRAIN }
}
layer {
  name: "dc_drop117"
  type: "Dropout"
  bottom: "dc_ip117"
  top: "dc_ip117"
  dropout_param {
    dropout_ratio: 0.5
  }
  include: { phase: TRAIN }
}
#layer {
#  name: "dc_ip217"
#  type: "InnerProduct"
#  bottom: "dc_ip117"
#  top: "dc_ip217"
#  param {
#    #name: "ip2_1"
#    lr_mult: 10
#  }
#  param {
#    #name: "ip2_2"
#    lr_mult: 20
#  }
#  inner_product_param {
#    num_output: 1024
#    weight_filler {
#      type: "gaussian"
#      std: 0.01
#    }
#    bias_filler {
#      type: "constant"
#    }
#  }
#  include: { phase: TRAIN }
#}
#layer {
#  name: "dc_relu217"
#  type: "ReLU"
#  bottom: "dc_ip217"
#  top: "dc_ip217"
#  include: { phase: TRAIN }
#}
#layer {
#  name: "dc_drop217"
#  type: "Dropout"
#  bottom: "dc_ip217"
#  top: "dc_ip217"
#  dropout_param {
#    dropout_ratio: 0.5
#  }
#  include: { phase: TRAIN }
#}
layer {
  name: "dc_ip317"
  type: "InnerProduct"
  bottom: "dc_ip117"
  top: "dc_ip317"
  param {
    lr_mult: 10
  }
  param {
    lr_mult: 20
  }
  inner_product_param {
    num_output: 1
    weight_filler {
      type: "gaussian"
      std: 0.3
    }
    bias_filler {
      type: "constant"
    }
  }
  include: { phase: TRAIN }
}
layer {
  name: "dc_loss17"
  type: "SigmoidCrossEntropyLoss"
  bottom: "dc_ip317"
  bottom: "dc_labels"
  bottom: "weight17"
  top: "dc_loss17"
  loss_weight: 0.1
  include: { phase: TRAIN }
}
layer {
  name: "dc_ip118"
  type: "InnerProduct"
  bottom: "grl18"
  top: "dc_ip118"
  param {
    #name: "ip1_1"
    lr_mult: 10
  }
  param {
    #name: "ip1_2"
    lr_mult: 20
  }
  inner_product_param {
    num_output: 256
    weight_filler {
      type: "gaussian"
      std: 0.01
    }
    bias_filler {
      type: "constant"
    }
  }
  include: { phase: TRAIN }
}
layer {
  name: "dc_relu118"
  type: "ReLU"
  bottom: "dc_ip118"
  top: "dc_ip118"
  include: { phase: TRAIN }
}
layer {
  name: "dc_drop118"
  type: "Dropout"
  bottom: "dc_ip118"
  top: "dc_ip118"
  dropout_param {
    dropout_ratio: 0.5
  }
  include: { phase: TRAIN }
}
#layer {
#  name: "dc_ip218"
#  type: "InnerProduct"
#  bottom: "dc_ip118"
#  top: "dc_ip218"
#  param {
#    #name: "ip2_1"
#    lr_mult: 10
#  }
#  param {
#    #name: "ip2_2"
#    lr_mult: 20
#  }
#  inner_product_param {
#    num_output: 1024
#    weight_filler {
#      type: "gaussian"
#      std: 0.01
#    }
#    bias_filler {
#      type: "constant"
#    }
#  }
#  include: { phase: TRAIN }
#}
#layer {
#  name: "dc_relu218"
#  type: "ReLU"
#  bottom: "dc_ip218"
#  top: "dc_ip218"
#  include: { phase: TRAIN }
#}
#layer {
#  name: "dc_drop218"
#  type: "Dropout"
#  bottom: "dc_ip218"
#  top: "dc_ip218"
#  dropout_param {
#    dropout_ratio: 0.5
#  }
#  include: { phase: TRAIN }
#}
layer {
  name: "dc_ip318"
  type: "InnerProduct"
  bottom: "dc_ip118"
  top: "dc_ip318"
  param {
    lr_mult: 10
  }
  param {
    lr_mult: 20
  }
  inner_product_param {
    num_output: 1
    weight_filler {
      type: "gaussian"
      std: 0.3
    }
    bias_filler {
      type: "constant"
    }
  }
  include: { phase: TRAIN }
}
layer {
  name: "dc_loss18"
  type: "SigmoidCrossEntropyLoss"
  bottom: "dc_ip318"
  bottom: "dc_labels"
  bottom: "weight18"
  top: "dc_loss18"
  loss_weight: 0.1
  include: { phase: TRAIN }
}
layer {
  name: "dc_ip119"
  type: "InnerProduct"
  bottom: "grl19"
  top: "dc_ip119"
  param {
    #name: "ip1_1"
    lr_mult: 10
  }
  param {
    #name: "ip1_2"
    lr_mult: 20
  }
  inner_product_param {
    num_output: 256
    weight_filler {
      type: "gaussian"
      std: 0.01
    }
    bias_filler {
      type: "constant"
    }
  }
  include: { phase: TRAIN }
}
layer {
  name: "dc_relu119"
  type: "ReLU"
  bottom: "dc_ip119"
  top: "dc_ip119"
  include: { phase: TRAIN }
}
layer {
  name: "dc_drop119"
  type: "Dropout"
  bottom: "dc_ip119"
  top: "dc_ip119"
  dropout_param {
    dropout_ratio: 0.5
  }
  include: { phase: TRAIN }
}
#layer {
#  name: "dc_ip219"
#  type: "InnerProduct"
#  bottom: "dc_ip119"
#  top: "dc_ip219"
#  param {
#    #name: "ip2_1"
#    lr_mult: 10
#  }
#  param {
#    #name: "ip2_2"
#    lr_mult: 20
#  }
#  inner_product_param {
#    num_output: 1024
#    weight_filler {
#      type: "gaussian"
#      std: 0.01
#    }
#    bias_filler {
#      type: "constant"
#    }
#  }
#  include: { phase: TRAIN }
#}
#layer {
#  name: "dc_relu219"
#  type: "ReLU"
#  bottom: "dc_ip219"
#  top: "dc_ip219"
#  include: { phase: TRAIN }
#}
#layer {
#  name: "dc_drop219"
#  type: "Dropout"
#  bottom: "dc_ip219"
#  top: "dc_ip219"
#  dropout_param {
#    dropout_ratio: 0.5
#  }
#  include: { phase: TRAIN }
#}
layer {
  name: "dc_ip319"
  type: "InnerProduct"
  bottom: "dc_ip119"
  top: "dc_ip319"
  param {
    lr_mult: 10
  }
  param {
    lr_mult: 20
  }
  inner_product_param {
    num_output: 1
    weight_filler {
      type: "gaussian"
      std: 0.3
    }
    bias_filler {
      type: "constant"
    }
  }
  include: { phase: TRAIN }
}
layer {
  name: "dc_loss19"
  type: "SigmoidCrossEntropyLoss"
  bottom: "dc_ip319"
  bottom: "dc_labels"
  bottom: "weight19"
  top: "dc_loss19"
  loss_weight: 0.1
  include: { phase: TRAIN }
}
layer {
  name: "dc_ip120"
  type: "InnerProduct"
  bottom: "grl20"
  top: "dc_ip120"
  param {
    #name: "ip1_1"
    lr_mult: 10
  }
  param {
    #name: "ip1_2"
    lr_mult: 20
  }
  inner_product_param {
    num_output: 256
    weight_filler {
      type: "gaussian"
      std: 0.01
    }
    bias_filler {
      type: "constant"
    }
  }
  include: { phase: TRAIN }
}
layer {
  name: "dc_relu120"
  type: "ReLU"
  bottom: "dc_ip120"
  top: "dc_ip120"
  include: { phase: TRAIN }
}
layer {
  name: "dc_drop120"
  type: "Dropout"
  bottom: "dc_ip120"
  top: "dc_ip120"
  dropout_param {
    dropout_ratio: 0.5
  }
  include: { phase: TRAIN }
}
#layer {
#  name: "dc_ip220"
#  type: "InnerProduct"
#  bottom: "dc_ip120"
#  top: "dc_ip220"
#  param {
#    #name: "ip2_1"
#    lr_mult: 10
#  }
#  param {
#    #name: "ip2_2"
#    lr_mult: 20
#  }
#  inner_product_param {
#    num_output: 1024
#    weight_filler {
#      type: "gaussian"
#      std: 0.01
#    }
#    bias_filler {
#      type: "constant"
#    }
#  }
#  include: { phase: TRAIN }
#}
#layer {
#  name: "dc_relu220"
#  type: "ReLU"
#  bottom: "dc_ip220"
#  top: "dc_ip220"
#  include: { phase: TRAIN }
#}
#layer {
#  name: "dc_drop220"
#  type: "Dropout"
#  bottom: "dc_ip220"
#  top: "dc_ip220"
#  dropout_param {
#    dropout_ratio: 0.5
#  }
#  include: { phase: TRAIN }
#}
layer {
  name: "dc_ip320"
  type: "InnerProduct"
  bottom: "dc_ip120"
  top: "dc_ip320"
  param {
    lr_mult: 10
  }
  param {
    lr_mult: 20
  }
  inner_product_param {
    num_output: 1
    weight_filler {
      type: "gaussian"
      std: 0.3
    }
    bias_filler {
      type: "constant"
    }
  }
  include: { phase: TRAIN }
}
layer {
  name: "dc_loss20"
  type: "SigmoidCrossEntropyLoss"
  bottom: "dc_ip320"
  bottom: "dc_labels"
  bottom: "weight20"
  top: "dc_loss20"
  loss_weight: 0.1
  include: { phase: TRAIN }
}
layer {
  name: "dc_ip121"
  type: "InnerProduct"
  bottom: "grl21"
  top: "dc_ip121"
  param {
    #name: "ip1_1"
    lr_mult: 10
  }
  param {
    #name: "ip1_2"
    lr_mult: 20
  }
  inner_product_param {
    num_output: 256
    weight_filler {
      type: "gaussian"
      std: 0.01
    }
    bias_filler {
      type: "constant"
    }
  }
  include: { phase: TRAIN }
}
layer {
  name: "dc_relu121"
  type: "ReLU"
  bottom: "dc_ip121"
  top: "dc_ip121"
  include: { phase: TRAIN }
}
layer {
  name: "dc_drop121"
  type: "Dropout"
  bottom: "dc_ip121"
  top: "dc_ip121"
  dropout_param {
    dropout_ratio: 0.5
  }
  include: { phase: TRAIN }
}
#layer {
#  name: "dc_ip221"
#  type: "InnerProduct"
#  bottom: "dc_ip121"
#  top: "dc_ip221"
#  param {
#    #name: "ip2_1"
#    lr_mult: 10
#  }
#  param {
#    #name: "ip2_2"
#    lr_mult: 20
#  }
#  inner_product_param {
#    num_output: 1024
#    weight_filler {
#      type: "gaussian"
#      std: 0.01
#    }
#    bias_filler {
#      type: "constant"
#    }
#  }
#  include: { phase: TRAIN }
#}
#layer {
#  name: "dc_relu221"
#  type: "ReLU"
#  bottom: "dc_ip221"
#  top: "dc_ip221"
#  include: { phase: TRAIN }
#}
#layer {
#  name: "dc_drop221"
#  type: "Dropout"
#  bottom: "dc_ip221"
#  top: "dc_ip221"
#  dropout_param {
#    dropout_ratio: 0.5
#  }
#  include: { phase: TRAIN }
#}
layer {
  name: "dc_ip321"
  type: "InnerProduct"
  bottom: "dc_ip121"
  top: "dc_ip321"
  param {
    lr_mult: 10
  }
  param {
    lr_mult: 20
  }
  inner_product_param {
    num_output: 1
    weight_filler {
      type: "gaussian"
      std: 0.3
    }
    bias_filler {
      type: "constant"
    }
  }
  include: { phase: TRAIN }
}
layer {
  name: "dc_loss21"
  type: "SigmoidCrossEntropyLoss"
  bottom: "dc_ip321"
  bottom: "dc_labels"
  bottom: "weight21"
  top: "dc_loss21"
  loss_weight: 0.1
  include: { phase: TRAIN }
}
layer {
  name: "dc_ip122"
  type: "InnerProduct"
  bottom: "grl22"
  top: "dc_ip122"
  param {
    #name: "ip1_1"
    lr_mult: 10
  }
  param {
    #name: "ip1_2"
    lr_mult: 20
  }
  inner_product_param {
    num_output: 256
    weight_filler {
      type: "gaussian"
      std: 0.01
    }
    bias_filler {
      type: "constant"
    }
  }
  include: { phase: TRAIN }
}
layer {
  name: "dc_relu122"
  type: "ReLU"
  bottom: "dc_ip122"
  top: "dc_ip122"
  include: { phase: TRAIN }
}
layer {
  name: "dc_drop122"
  type: "Dropout"
  bottom: "dc_ip122"
  top: "dc_ip122"
  dropout_param {
    dropout_ratio: 0.5
  }
  include: { phase: TRAIN }
}
#layer {
#  name: "dc_ip222"
#  type: "InnerProduct"
#  bottom: "dc_ip122"
#  top: "dc_ip222"
#  param {
#    #name: "ip2_1"
#    lr_mult: 10
#  }
#  param {
#    #name: "ip2_2"
#    lr_mult: 20
#  }
#  inner_product_param {
#    num_output: 1024
#    weight_filler {
#      type: "gaussian"
#      std: 0.01
#    }
#    bias_filler {
#      type: "constant"
#    }
#  }
#  include: { phase: TRAIN }
#}
#layer {
#  name: "dc_relu222"
#  type: "ReLU"
#  bottom: "dc_ip222"
#  top: "dc_ip222"
#  include: { phase: TRAIN }
#}
#layer {
#  name: "dc_drop222"
#  type: "Dropout"
#  bottom: "dc_ip222"
#  top: "dc_ip222"
#  dropout_param {
#    dropout_ratio: 0.5
#  }
#  include: { phase: TRAIN }
#}
layer {
  name: "dc_ip322"
  type: "InnerProduct"
  bottom: "dc_ip122"
  top: "dc_ip322"
  param {
    lr_mult: 10
  }
  param {
    lr_mult: 20
  }
  inner_product_param {
    num_output: 1
    weight_filler {
      type: "gaussian"
      std: 0.3
    }
    bias_filler {
      type: "constant"
    }
  }
  include: { phase: TRAIN }
}
layer {
  name: "dc_loss22"
  type: "SigmoidCrossEntropyLoss"
  bottom: "dc_ip322"
  bottom: "dc_labels"
  bottom: "weight22"
  top: "dc_loss22"
  loss_weight: 0.1
  include: { phase: TRAIN }
}
layer {
  name: "dc_ip123"
  type: "InnerProduct"
  bottom: "grl23"
  top: "dc_ip123"
  param {
    #name: "ip1_1"
    lr_mult: 10
  }
  param {
    #name: "ip1_2"
    lr_mult: 20
  }
  inner_product_param {
    num_output: 256
    weight_filler {
      type: "gaussian"
      std: 0.01
    }
    bias_filler {
      type: "constant"
    }
  }
  include: { phase: TRAIN }
}
layer {
  name: "dc_relu123"
  type: "ReLU"
  bottom: "dc_ip123"
  top: "dc_ip123"
  include: { phase: TRAIN }
}
layer {
  name: "dc_drop123"
  type: "Dropout"
  bottom: "dc_ip123"
  top: "dc_ip123"
  dropout_param {
    dropout_ratio: 0.5
  }
  include: { phase: TRAIN }
}
#layer {
#  name: "dc_ip223"
#  type: "InnerProduct"
#  bottom: "dc_ip123"
#  top: "dc_ip223"
#  param {
#    #name: "ip2_1"
#    lr_mult: 10
#  }
#  param {
#    #name: "ip2_2"
#    lr_mult: 20
#  }
#  inner_product_param {
#    num_output: 1024
#    weight_filler {
#      type: "gaussian"
#      std: 0.01
#    }
#    bias_filler {
#      type: "constant"
#    }
#  }
#  include: { phase: TRAIN }
#}
#layer {
#  name: "dc_relu223"
#  type: "ReLU"
#  bottom: "dc_ip223"
#  top: "dc_ip223"
#  include: { phase: TRAIN }
#}
#layer {
#  name: "dc_drop223"
#  type: "Dropout"
#  bottom: "dc_ip223"
#  top: "dc_ip223"
#  dropout_param {
#    dropout_ratio: 0.5
#  }
#  include: { phase: TRAIN }
#}
layer {
  name: "dc_ip323"
  type: "InnerProduct"
  bottom: "dc_ip123"
  top: "dc_ip323"
  param {
    lr_mult: 10
  }
  param {
    lr_mult: 20
  }
  inner_product_param {
    num_output: 1
    weight_filler {
      type: "gaussian"
      std: 0.3
    }
    bias_filler {
      type: "constant"
    }
  }
  include: { phase: TRAIN }
}
layer {
  name: "dc_loss23"
  type: "SigmoidCrossEntropyLoss"
  bottom: "dc_ip323"
  bottom: "dc_labels"
  bottom: "weight23"
  top: "dc_loss23"
  loss_weight: 0.1
  include: { phase: TRAIN }
}
layer {
  name: "dc_ip124"
  type: "InnerProduct"
  bottom: "grl24"
  top: "dc_ip124"
  param {
    #name: "ip1_1"
    lr_mult: 10
  }
  param {
    #name: "ip1_2"
    lr_mult: 20
  }
  inner_product_param {
    num_output: 256
    weight_filler {
      type: "gaussian"
      std: 0.01
    }
    bias_filler {
      type: "constant"
    }
  }
  include: { phase: TRAIN }
}
layer {
  name: "dc_relu124"
  type: "ReLU"
  bottom: "dc_ip124"
  top: "dc_ip124"
  include: { phase: TRAIN }
}
layer {
  name: "dc_drop124"
  type: "Dropout"
  bottom: "dc_ip124"
  top: "dc_ip124"
  dropout_param {
    dropout_ratio: 0.5
  }
  include: { phase: TRAIN }
}
#layer {
#  name: "dc_ip224"
#  type: "InnerProduct"
#  bottom: "dc_ip124"
#  top: "dc_ip224"
#  param {
#    #name: "ip2_1"
#    lr_mult: 10
#  }
#  param {
#    #name: "ip2_2"
#    lr_mult: 20
#  }
#  inner_product_param {
#    num_output: 1024
#    weight_filler {
#      type: "gaussian"
#      std: 0.01
#    }
#    bias_filler {
#      type: "constant"
#    }
#  }
#  include: { phase: TRAIN }
#}
#layer {
#  name: "dc_relu224"
#  type: "ReLU"
#  bottom: "dc_ip224"
#  top: "dc_ip224"
#  include: { phase: TRAIN }
#}
#layer {
#  name: "dc_drop224"
#  type: "Dropout"
#  bottom: "dc_ip224"
#  top: "dc_ip224"
#  dropout_param {
#    dropout_ratio: 0.5
#  }
#  include: { phase: TRAIN }
#}
layer {
  name: "dc_ip324"
  type: "InnerProduct"
  bottom: "dc_ip124"
  top: "dc_ip324"
  param {
    lr_mult: 10
  }
  param {
    lr_mult: 20
  }
  inner_product_param {
    num_output: 1
    weight_filler {
      type: "gaussian"
      std: 0.3
    }
    bias_filler {
      type: "constant"
    }
  }
  include: { phase: TRAIN }
}
layer {
  name: "dc_loss24"
  type: "SigmoidCrossEntropyLoss"
  bottom: "dc_ip324"
  bottom: "dc_labels"
  bottom: "weight24"
  top: "dc_loss24"
  loss_weight: 0.1
  include: { phase: TRAIN }
}
layer {
  name: "dc_ip125"
  type: "InnerProduct"
  bottom: "grl25"
  top: "dc_ip125"
  param {
    #name: "ip1_1"
    lr_mult: 10
  }
  param {
    #name: "ip1_2"
    lr_mult: 20
  }
  inner_product_param {
    num_output: 256
    weight_filler {
      type: "gaussian"
      std: 0.01
    }
    bias_filler {
      type: "constant"
    }
  }
  include: { phase: TRAIN }
}
layer {
  name: "dc_relu125"
  type: "ReLU"
  bottom: "dc_ip125"
  top: "dc_ip125"
  include: { phase: TRAIN }
}
layer {
  name: "dc_drop125"
  type: "Dropout"
  bottom: "dc_ip125"
  top: "dc_ip125"
  dropout_param {
    dropout_ratio: 0.5
  }
  include: { phase: TRAIN }
}
#layer {
#  name: "dc_ip225"
#  type: "InnerProduct"
#  bottom: "dc_ip125"
#  top: "dc_ip225"
#  param {
#    #name: "ip2_1"
#    lr_mult: 10
#  }
#  param {
#    #name: "ip2_2"
#    lr_mult: 20
#  }
#  inner_product_param {
#    num_output: 1024
#    weight_filler {
#      type: "gaussian"
#      std: 0.01
#    }
#    bias_filler {
#      type: "constant"
#    }
#  }
#  include: { phase: TRAIN }
#}
#layer {
#  name: "dc_relu225"
#  type: "ReLU"
#  bottom: "dc_ip225"
#  top: "dc_ip225"
#  include: { phase: TRAIN }
#}
#layer {
#  name: "dc_drop225"
#  type: "Dropout"
#  bottom: "dc_ip225"
#  top: "dc_ip225"
#  dropout_param {
#    dropout_ratio: 0.5
#  }
#  include: { phase: TRAIN }
#}
layer {
  name: "dc_ip325"
  type: "InnerProduct"
  bottom: "dc_ip125"
  top: "dc_ip325"
  param {
    lr_mult: 10
  }
  param {
    lr_mult: 20
  }
  inner_product_param {
    num_output: 1
    weight_filler {
      type: "gaussian"
      std: 0.3
    }
    bias_filler {
      type: "constant"
    }
  }
  include: { phase: TRAIN }
}
layer {
  name: "dc_loss25"
  type: "SigmoidCrossEntropyLoss"
  bottom: "dc_ip325"
  bottom: "dc_labels"
  bottom: "weight25"
  top: "dc_loss25"
  loss_weight: 0.1
  include: { phase: TRAIN }
}
layer {
  name: "dc_ip126"
  type: "InnerProduct"
  bottom: "grl26"
  top: "dc_ip126"
  param {
    #name: "ip1_1"
    lr_mult: 10
  }
  param {
    #name: "ip1_2"
    lr_mult: 20
  }
  inner_product_param {
    num_output: 256
    weight_filler {
      type: "gaussian"
      std: 0.01
    }
    bias_filler {
      type: "constant"
    }
  }
  include: { phase: TRAIN }
}
layer {
  name: "dc_relu126"
  type: "ReLU"
  bottom: "dc_ip126"
  top: "dc_ip126"
  include: { phase: TRAIN }
}
layer {
  name: "dc_drop126"
  type: "Dropout"
  bottom: "dc_ip126"
  top: "dc_ip126"
  dropout_param {
    dropout_ratio: 0.5
  }
  include: { phase: TRAIN }
}
#layer {
#  name: "dc_ip226"
#  type: "InnerProduct"
#  bottom: "dc_ip126"
#  top: "dc_ip226"
#  param {
#    #name: "ip2_1"
#    lr_mult: 10
#  }
#  param {
#    #name: "ip2_2"
#    lr_mult: 20
#  }
#  inner_product_param {
#    num_output: 1024
#    weight_filler {
#      type: "gaussian"
#      std: 0.01
#    }
#    bias_filler {
#      type: "constant"
#    }
#  }
#  include: { phase: TRAIN }
#}
#layer {
#  name: "dc_relu226"
#  type: "ReLU"
#  bottom: "dc_ip226"
#  top: "dc_ip226"
#  include: { phase: TRAIN }
#}
#layer {
#  name: "dc_drop226"
#  type: "Dropout"
#  bottom: "dc_ip226"
#  top: "dc_ip226"
#  dropout_param {
#    dropout_ratio: 0.5
#  }
#  include: { phase: TRAIN }
#}
layer {
  name: "dc_ip326"
  type: "InnerProduct"
  bottom: "dc_ip126"
  top: "dc_ip326"
  param {
    lr_mult: 10
  }
  param {
    lr_mult: 20
  }
  inner_product_param {
    num_output: 1
    weight_filler {
      type: "gaussian"
      std: 0.3
    }
    bias_filler {
      type: "constant"
    }
  }
  include: { phase: TRAIN }
}
layer {
  name: "dc_loss26"
  type: "SigmoidCrossEntropyLoss"
  bottom: "dc_ip326"
  bottom: "dc_labels"
  bottom: "weight26"
  top: "dc_loss26"
  loss_weight: 0.1
  include: { phase: TRAIN }
}
layer {
  name: "dc_ip127"
  type: "InnerProduct"
  bottom: "grl27"
  top: "dc_ip127"
  param {
    #name: "ip1_1"
    lr_mult: 10
  }
  param {
    #name: "ip1_2"
    lr_mult: 20
  }
  inner_product_param {
    num_output: 256
    weight_filler {
      type: "gaussian"
      std: 0.01
    }
    bias_filler {
      type: "constant"
    }
  }
  include: { phase: TRAIN }
}
layer {
  name: "dc_relu127"
  type: "ReLU"
  bottom: "dc_ip127"
  top: "dc_ip127"
  include: { phase: TRAIN }
}
layer {
  name: "dc_drop127"
  type: "Dropout"
  bottom: "dc_ip127"
  top: "dc_ip127"
  dropout_param {
    dropout_ratio: 0.5
  }
  include: { phase: TRAIN }
}
#layer {
#  name: "dc_ip227"
#  type: "InnerProduct"
#  bottom: "dc_ip127"
#  top: "dc_ip227"
#  param {
#    #name: "ip2_1"
#    lr_mult: 10
#  }
#  param {
#    #name: "ip2_2"
#    lr_mult: 20
#  }
#  inner_product_param {
#    num_output: 1024
#    weight_filler {
#      type: "gaussian"
#      std: 0.01
#    }
#    bias_filler {
#      type: "constant"
#    }
#  }
#  include: { phase: TRAIN }
#}
#layer {
#  name: "dc_relu227"
#  type: "ReLU"
#  bottom: "dc_ip227"
#  top: "dc_ip227"
#  include: { phase: TRAIN }
#}
#layer {
#  name: "dc_drop227"
#  type: "Dropout"
#  bottom: "dc_ip227"
#  top: "dc_ip227"
#  dropout_param {
#    dropout_ratio: 0.5
#  }
#  include: { phase: TRAIN }
#}
layer {
  name: "dc_ip327"
  type: "InnerProduct"
  bottom: "dc_ip127"
  top: "dc_ip327"
  param {
    lr_mult: 10
  }
  param {
    lr_mult: 20
  }
  inner_product_param {
    num_output: 1
    weight_filler {
      type: "gaussian"
      std: 0.3
    }
    bias_filler {
      type: "constant"
    }
  }
  include: { phase: TRAIN }
}
layer {
  name: "dc_loss27"
  type: "SigmoidCrossEntropyLoss"
  bottom: "dc_ip327"
  bottom: "dc_labels"
  bottom: "weight27"
  top: "dc_loss27"
  loss_weight: 0.1
  include: { phase: TRAIN }
}
layer {
  name: "dc_ip128"
  type: "InnerProduct"
  bottom: "grl28"
  top: "dc_ip128"
  param {
    #name: "ip1_1"
    lr_mult: 10
  }
  param {
    #name: "ip1_2"
    lr_mult: 20
  }
  inner_product_param {
    num_output: 256
    weight_filler {
      type: "gaussian"
      std: 0.01
    }
    bias_filler {
      type: "constant"
    }
  }
  include: { phase: TRAIN }
}
layer {
  name: "dc_relu128"
  type: "ReLU"
  bottom: "dc_ip128"
  top: "dc_ip128"
  include: { phase: TRAIN }
}
layer {
  name: "dc_drop128"
  type: "Dropout"
  bottom: "dc_ip128"
  top: "dc_ip128"
  dropout_param {
    dropout_ratio: 0.5
  }
  include: { phase: TRAIN }
}
#layer {
#  name: "dc_ip228"
#  type: "InnerProduct"
#  bottom: "dc_ip128"
#  top: "dc_ip228"
#  param {
#    #name: "ip2_1"
#    lr_mult: 10
#  }
#  param {
#    #name: "ip2_2"
#    lr_mult: 20
#  }
#  inner_product_param {
#    num_output: 1024
#    weight_filler {
#      type: "gaussian"
#      std: 0.01
#    }
#    bias_filler {
#      type: "constant"
#    }
#  }
#  include: { phase: TRAIN }
#}
#layer {
#  name: "dc_relu228"
#  type: "ReLU"
#  bottom: "dc_ip228"
#  top: "dc_ip228"
#  include: { phase: TRAIN }
#}
#layer {
#  name: "dc_drop228"
#  type: "Dropout"
#  bottom: "dc_ip228"
#  top: "dc_ip228"
#  dropout_param {
#    dropout_ratio: 0.5
#  }
#  include: { phase: TRAIN }
#}
layer {
  name: "dc_ip328"
  type: "InnerProduct"
  bottom: "dc_ip128"
  top: "dc_ip328"
  param {
    lr_mult: 10
  }
  param {
    lr_mult: 20
  }
  inner_product_param {
    num_output: 1
    weight_filler {
      type: "gaussian"
      std: 0.3
    }
    bias_filler {
      type: "constant"
    }
  }
  include: { phase: TRAIN }
}
layer {
  name: "dc_loss28"
  type: "SigmoidCrossEntropyLoss"
  bottom: "dc_ip328"
  bottom: "dc_labels"
  bottom: "weight28"
  top: "dc_loss28"
  loss_weight: 0.1
  include: { phase: TRAIN }
}
layer {
  name: "dc_ip129"
  type: "InnerProduct"
  bottom: "grl29"
  top: "dc_ip129"
  param {
    #name: "ip1_1"
    lr_mult: 10
  }
  param {
    #name: "ip1_2"
    lr_mult: 20
  }
  inner_product_param {
    num_output: 256
    weight_filler {
      type: "gaussian"
      std: 0.01
    }
    bias_filler {
      type: "constant"
    }
  }
  include: { phase: TRAIN }
}
layer {
  name: "dc_relu129"
  type: "ReLU"
  bottom: "dc_ip129"
  top: "dc_ip129"
  include: { phase: TRAIN }
}
layer {
  name: "dc_drop129"
  type: "Dropout"
  bottom: "dc_ip129"
  top: "dc_ip129"
  dropout_param {
    dropout_ratio: 0.5
  }
  include: { phase: TRAIN }
}
#layer {
#  name: "dc_ip229"
#  type: "InnerProduct"
#  bottom: "dc_ip129"
#  top: "dc_ip229"
#  param {
#    #name: "ip2_1"
#    lr_mult: 10
#  }
#  param {
#    #name: "ip2_2"
#    lr_mult: 20
#  }
#  inner_product_param {
#    num_output: 1024
#    weight_filler {
#      type: "gaussian"
#      std: 0.01
#    }
#    bias_filler {
#      type: "constant"
#    }
#  }
#  include: { phase: TRAIN }
#}
#layer {
#  name: "dc_relu229"
#  type: "ReLU"
#  bottom: "dc_ip229"
#  top: "dc_ip229"
#  include: { phase: TRAIN }
#}
#layer {
#  name: "dc_drop229"
#  type: "Dropout"
#  bottom: "dc_ip229"
#  top: "dc_ip229"
#  dropout_param {
#    dropout_ratio: 0.5
#  }
#  include: { phase: TRAIN }
#}
layer {
  name: "dc_ip329"
  type: "InnerProduct"
  bottom: "dc_ip129"
  top: "dc_ip329"
  param {
    lr_mult: 10
  }
  param {
    lr_mult: 20
  }
  inner_product_param {
    num_output: 1
    weight_filler {
      type: "gaussian"
      std: 0.3
    }
    bias_filler {
      type: "constant"
    }
  }
  include: { phase: TRAIN }
}
layer {
  name: "dc_loss29"
  type: "SigmoidCrossEntropyLoss"
  bottom: "dc_ip329"
  bottom: "dc_labels"
  bottom: "weight29"
  top: "dc_loss29"
  loss_weight: 0.1
  include: { phase: TRAIN }
}
layer {
  name: "dc_ip130"
  type: "InnerProduct"
  bottom: "grl30"
  top: "dc_ip130"
  param {
    #name: "ip1_1"
    lr_mult: 10
  }
  param {
    #name: "ip1_2"
    lr_mult: 20
  }
  inner_product_param {
    num_output: 256
    weight_filler {
      type: "gaussian"
      std: 0.01
    }
    bias_filler {
      type: "constant"
    }
  }
  include: { phase: TRAIN }
}
layer {
  name: "dc_relu130"
  type: "ReLU"
  bottom: "dc_ip130"
  top: "dc_ip130"
  include: { phase: TRAIN }
}
layer {
  name: "dc_drop130"
  type: "Dropout"
  bottom: "dc_ip130"
  top: "dc_ip130"
  dropout_param {
    dropout_ratio: 0.5
  }
  include: { phase: TRAIN }
}
#layer {
#  name: "dc_ip230"
#  type: "InnerProduct"
#  bottom: "dc_ip130"
#  top: "dc_ip230"
#  param {
#    #name: "ip2_1"
#    lr_mult: 10
#  }
#  param {
#    #name: "ip2_2"
#    lr_mult: 20
#  }
#  inner_product_param {
#    num_output: 1024
#    weight_filler {
#      type: "gaussian"
#      std: 0.01
#    }
#    bias_filler {
#      type: "constant"
#    }
#  }
#  include: { phase: TRAIN }
#}
#layer {
#  name: "dc_relu230"
#  type: "ReLU"
#  bottom: "dc_ip230"
#  top: "dc_ip230"
#  include: { phase: TRAIN }
#}
#layer {
#  name: "dc_drop230"
#  type: "Dropout"
#  bottom: "dc_ip230"
#  top: "dc_ip230"
#  dropout_param {
#    dropout_ratio: 0.5
#  }
#  include: { phase: TRAIN }
#}
layer {
  name: "dc_ip330"
  type: "InnerProduct"
  bottom: "dc_ip130"
  top: "dc_ip330"
  param {
    lr_mult: 10
  }
  param {
    lr_mult: 20
  }
  inner_product_param {
    num_output: 1
    weight_filler {
      type: "gaussian"
      std: 0.3
    }
    bias_filler {
      type: "constant"
    }
  }
  include: { phase: TRAIN }
}
layer {
  name: "dc_loss30"
  type: "SigmoidCrossEntropyLoss"
  bottom: "dc_ip330"
  bottom: "dc_labels"
  bottom: "weight30"
  top: "dc_loss30"
  loss_weight: 0.1
  include: { phase: TRAIN }
}
layer {
  name: "dc_ip131"
  type: "InnerProduct"
  bottom: "grl31"
  top: "dc_ip131"
  param {
    #name: "ip1_1"
    lr_mult: 10
  }
  param {
    #name: "ip1_2"
    lr_mult: 20
  }
  inner_product_param {
    num_output: 256
    weight_filler {
      type: "gaussian"
      std: 0.01
    }
    bias_filler {
      type: "constant"
    }
  }
  include: { phase: TRAIN }
}
layer {
  name: "dc_relu131"
  type: "ReLU"
  bottom: "dc_ip131"
  top: "dc_ip131"
  include: { phase: TRAIN }
}
layer {
  name: "dc_drop131"
  type: "Dropout"
  bottom: "dc_ip131"
  top: "dc_ip131"
  dropout_param {
    dropout_ratio: 0.5
  }
  include: { phase: TRAIN }
}
#layer {
#  name: "dc_ip231"
#  type: "InnerProduct"
#  bottom: "dc_ip131"
#  top: "dc_ip231"
#  param {
#    #name: "ip2_1"
#    lr_mult: 10
#  }
#  param {
#    #name: "ip2_2"
#    lr_mult: 20
#  }
#  inner_product_param {
#    num_output: 1024
#    weight_filler {
#      type: "gaussian"
#      std: 0.01
#    }
#    bias_filler {
#      type: "constant"
#    }
#  }
#  include: { phase: TRAIN }
#}
#layer {
#  name: "dc_relu231"
#  type: "ReLU"
#  bottom: "dc_ip231"
#  top: "dc_ip231"
#  include: { phase: TRAIN }
#}
#layer {
#  name: "dc_drop231"
#  type: "Dropout"
#  bottom: "dc_ip231"
#  top: "dc_ip231"
#  dropout_param {
#    dropout_ratio: 0.5
#  }
#  include: { phase: TRAIN }
#}
layer {
  name: "dc_ip331"
  type: "InnerProduct"
  bottom: "dc_ip131"
  top: "dc_ip331"
  param {
    lr_mult: 10
  }
  param {
    lr_mult: 20
  }
  inner_product_param {
    num_output: 1
    weight_filler {
      type: "gaussian"
      std: 0.3
    }
    bias_filler {
      type: "constant"
    }
  }
  include: { phase: TRAIN }
}
layer {
  name: "dc_loss31"
  type: "SigmoidCrossEntropyLoss"
  bottom: "dc_ip331"
  bottom: "dc_labels"
  bottom: "weight31"
  top: "dc_loss31"
  loss_weight: 0.1
  include: { phase: TRAIN }
}
layer {
  name: "dc_ip132"
  type: "InnerProduct"
  bottom: "grl32"
  top: "dc_ip132"
  param {
    #name: "ip1_1"
    lr_mult: 10
  }
  param {
    #name: "ip1_2"
    lr_mult: 20
  }
  inner_product_param {
    num_output: 256
    weight_filler {
      type: "gaussian"
      std: 0.01
    }
    bias_filler {
      type: "constant"
    }
  }
  include: { phase: TRAIN }
}
layer {
  name: "dc_relu132"
  type: "ReLU"
  bottom: "dc_ip132"
  top: "dc_ip132"
  include: { phase: TRAIN }
}
layer {
  name: "dc_drop132"
  type: "Dropout"
  bottom: "dc_ip132"
  top: "dc_ip132"
  dropout_param {
    dropout_ratio: 0.5
  }
  include: { phase: TRAIN }
}
#layer {
#  name: "dc_ip232"
#  type: "InnerProduct"
#  bottom: "dc_ip132"
#  top: "dc_ip232"
#  param {
#    #name: "ip2_1"
#    lr_mult: 10
#  }
#  param {
#    #name: "ip2_2"
#    lr_mult: 20
#  }
#  inner_product_param {
#    num_output: 1024
#    weight_filler {
#      type: "gaussian"
#      std: 0.01
#    }
#    bias_filler {
#      type: "constant"
#    }
#  }
#  include: { phase: TRAIN }
#}
#layer {
#  name: "dc_relu232"
#  type: "ReLU"
#  bottom: "dc_ip232"
#  top: "dc_ip232"
#  include: { phase: TRAIN }
#}
#layer {
#  name: "dc_drop232"
#  type: "Dropout"
#  bottom: "dc_ip232"
#  top: "dc_ip232"
#  dropout_param {
#    dropout_ratio: 0.5
#  }
#  include: { phase: TRAIN }
#}
layer {
  name: "dc_ip332"
  type: "InnerProduct"
  bottom: "dc_ip132"
  top: "dc_ip332"
  param {
    lr_mult: 10
  }
  param {
    lr_mult: 20
  }
  inner_product_param {
    num_output: 1
    weight_filler {
      type: "gaussian"
      std: 0.3
    }
    bias_filler {
      type: "constant"
    }
  }
  include: { phase: TRAIN }
}
layer {
  name: "dc_loss32"
  type: "SigmoidCrossEntropyLoss"
  bottom: "dc_ip332"
  bottom: "dc_labels"
  bottom: "weight32"
  top: "dc_loss32"
  loss_weight: 0.1
  include: { phase: TRAIN }
}
layer {
  name: "dc_ip133"
  type: "InnerProduct"
  bottom: "grl33"
  top: "dc_ip133"
  param {
    #name: "ip1_1"
    lr_mult: 10
  }
  param {
    #name: "ip1_2"
    lr_mult: 20
  }
  inner_product_param {
    num_output: 256
    weight_filler {
      type: "gaussian"
      std: 0.01
    }
    bias_filler {
      type: "constant"
    }
  }
  include: { phase: TRAIN }
}
layer {
  name: "dc_relu133"
  type: "ReLU"
  bottom: "dc_ip133"
  top: "dc_ip133"
  include: { phase: TRAIN }
}
layer {
  name: "dc_drop133"
  type: "Dropout"
  bottom: "dc_ip133"
  top: "dc_ip133"
  dropout_param {
    dropout_ratio: 0.5
  }
  include: { phase: TRAIN }
}
#layer {
#  name: "dc_ip233"
#  type: "InnerProduct"
#  bottom: "dc_ip133"
#  top: "dc_ip233"
#  param {
#    #name: "ip2_1"
#    lr_mult: 10
#  }
#  param {
#    #name: "ip2_2"
#    lr_mult: 20
#  }
#  inner_product_param {
#    num_output: 1024
#    weight_filler {
#      type: "gaussian"
#      std: 0.01
#    }
#    bias_filler {
#      type: "constant"
#    }
#  }
#  include: { phase: TRAIN }
#}
#layer {
#  name: "dc_relu233"
#  type: "ReLU"
#  bottom: "dc_ip233"
#  top: "dc_ip233"
#  include: { phase: TRAIN }
#}
#layer {
#  name: "dc_drop233"
#  type: "Dropout"
#  bottom: "dc_ip233"
#  top: "dc_ip233"
#  dropout_param {
#    dropout_ratio: 0.5
#  }
#  include: { phase: TRAIN }
#}
layer {
  name: "dc_ip333"
  type: "InnerProduct"
  bottom: "dc_ip133"
  top: "dc_ip333"
  param {
    lr_mult: 10
  }
  param {
    lr_mult: 20
  }
  inner_product_param {
    num_output: 1
    weight_filler {
      type: "gaussian"
      std: 0.3
    }
    bias_filler {
      type: "constant"
    }
  }
  include: { phase: TRAIN }
}
layer {
  name: "dc_loss33"
  type: "SigmoidCrossEntropyLoss"
  bottom: "dc_ip333"
  bottom: "dc_labels"
  bottom: "weight33"
  top: "dc_loss33"
  loss_weight: 0.1
  include: { phase: TRAIN }
}
layer {
  name: "dc_ip134"
  type: "InnerProduct"
  bottom: "grl34"
  top: "dc_ip134"
  param {
    #name: "ip1_1"
    lr_mult: 10
  }
  param {
    #name: "ip1_2"
    lr_mult: 20
  }
  inner_product_param {
    num_output: 256
    weight_filler {
      type: "gaussian"
      std: 0.01
    }
    bias_filler {
      type: "constant"
    }
  }
  include: { phase: TRAIN }
}
layer {
  name: "dc_relu134"
  type: "ReLU"
  bottom: "dc_ip134"
  top: "dc_ip134"
  include: { phase: TRAIN }
}
layer {
  name: "dc_drop134"
  type: "Dropout"
  bottom: "dc_ip134"
  top: "dc_ip134"
  dropout_param {
    dropout_ratio: 0.5
  }
  include: { phase: TRAIN }
}
#layer {
#  name: "dc_ip234"
#  type: "InnerProduct"
#  bottom: "dc_ip134"
#  top: "dc_ip234"
#  param {
#    #name: "ip2_1"
#    lr_mult: 10
#  }
#  param {
#    #name: "ip2_2"
#    lr_mult: 20
#  }
#  inner_product_param {
#    num_output: 1024
#    weight_filler {
#      type: "gaussian"
#      std: 0.01
#    }
#    bias_filler {
#      type: "constant"
#    }
#  }
#  include: { phase: TRAIN }
#}
#layer {
#  name: "dc_relu234"
#  type: "ReLU"
#  bottom: "dc_ip234"
#  top: "dc_ip234"
#  include: { phase: TRAIN }
#}
#layer {
#  name: "dc_drop234"
#  type: "Dropout"
#  bottom: "dc_ip234"
#  top: "dc_ip234"
#  dropout_param {
#    dropout_ratio: 0.5
#  }
#  include: { phase: TRAIN }
#}
layer {
  name: "dc_ip334"
  type: "InnerProduct"
  bottom: "dc_ip134"
  top: "dc_ip334"
  param {
    lr_mult: 10
  }
  param {
    lr_mult: 20
  }
  inner_product_param {
    num_output: 1
    weight_filler {
      type: "gaussian"
      std: 0.3
    }
    bias_filler {
      type: "constant"
    }
  }
  include: { phase: TRAIN }
}
layer {
  name: "dc_loss34"
  type: "SigmoidCrossEntropyLoss"
  bottom: "dc_ip334"
  bottom: "dc_labels"
  bottom: "weight34"
  top: "dc_loss34"
  loss_weight: 0.1
  include: { phase: TRAIN }
}
layer {
  name: "dc_ip135"
  type: "InnerProduct"
  bottom: "grl35"
  top: "dc_ip135"
  param {
    #name: "ip1_1"
    lr_mult: 10
  }
  param {
    #name: "ip1_2"
    lr_mult: 20
  }
  inner_product_param {
    num_output: 256
    weight_filler {
      type: "gaussian"
      std: 0.01
    }
    bias_filler {
      type: "constant"
    }
  }
  include: { phase: TRAIN }
}
layer {
  name: "dc_relu135"
  type: "ReLU"
  bottom: "dc_ip135"
  top: "dc_ip135"
  include: { phase: TRAIN }
}
layer {
  name: "dc_drop135"
  type: "Dropout"
  bottom: "dc_ip135"
  top: "dc_ip135"
  dropout_param {
    dropout_ratio: 0.5
  }
  include: { phase: TRAIN }
}
#layer {
#  name: "dc_ip235"
#  type: "InnerProduct"
#  bottom: "dc_ip135"
#  top: "dc_ip235"
#  param {
#    #name: "ip2_1"
#    lr_mult: 10
#  }
#  param {
#    #name: "ip2_2"
#    lr_mult: 20
#  }
#  inner_product_param {
#    num_output: 1024
#    weight_filler {
#      type: "gaussian"
#      std: 0.01
#    }
#    bias_filler {
#      type: "constant"
#    }
#  }
#  include: { phase: TRAIN }
#}
#layer {
#  name: "dc_relu235"
#  type: "ReLU"
#  bottom: "dc_ip235"
#  top: "dc_ip235"
#  include: { phase: TRAIN }
#}
#layer {
#  name: "dc_drop235"
#  type: "Dropout"
#  bottom: "dc_ip235"
#  top: "dc_ip235"
#  dropout_param {
#    dropout_ratio: 0.5
#  }
#  include: { phase: TRAIN }
#}
layer {
  name: "dc_ip335"
  type: "InnerProduct"
  bottom: "dc_ip135"
  top: "dc_ip335"
  param {
    lr_mult: 10
  }
  param {
    lr_mult: 20
  }
  inner_product_param {
    num_output: 1
    weight_filler {
      type: "gaussian"
      std: 0.3
    }
    bias_filler {
      type: "constant"
    }
  }
  include: { phase: TRAIN }
}
layer {
  name: "dc_loss35"
  type: "SigmoidCrossEntropyLoss"
  bottom: "dc_ip335"
  bottom: "dc_labels"
  bottom: "weight35"
  top: "dc_loss35"
  loss_weight: 0.1
  include: { phase: TRAIN }
}
layer {
  name: "dc_ip136"
  type: "InnerProduct"
  bottom: "grl36"
  top: "dc_ip136"
  param {
    #name: "ip1_1"
    lr_mult: 10
  }
  param {
    #name: "ip1_2"
    lr_mult: 20
  }
  inner_product_param {
    num_output: 256
    weight_filler {
      type: "gaussian"
      std: 0.01
    }
    bias_filler {
      type: "constant"
    }
  }
  include: { phase: TRAIN }
}
layer {
  name: "dc_relu136"
  type: "ReLU"
  bottom: "dc_ip136"
  top: "dc_ip136"
  include: { phase: TRAIN }
}
layer {
  name: "dc_drop136"
  type: "Dropout"
  bottom: "dc_ip136"
  top: "dc_ip136"
  dropout_param {
    dropout_ratio: 0.5
  }
  include: { phase: TRAIN }
}
#layer {
#  name: "dc_ip236"
#  type: "InnerProduct"
#  bottom: "dc_ip136"
#  top: "dc_ip236"
#  param {
#    #name: "ip2_1"
#    lr_mult: 10
#  }
#  param {
#    #name: "ip2_2"
#    lr_mult: 20
#  }
#  inner_product_param {
#    num_output: 1024
#    weight_filler {
#      type: "gaussian"
#      std: 0.01
#    }
#    bias_filler {
#      type: "constant"
#    }
#  }
#  include: { phase: TRAIN }
#}
#layer {
#  name: "dc_relu236"
#  type: "ReLU"
#  bottom: "dc_ip236"
#  top: "dc_ip236"
#  include: { phase: TRAIN }
#}
#layer {
#  name: "dc_drop236"
#  type: "Dropout"
#  bottom: "dc_ip236"
#  top: "dc_ip236"
#  dropout_param {
#    dropout_ratio: 0.5
#  }
#  include: { phase: TRAIN }
#}
layer {
  name: "dc_ip336"
  type: "InnerProduct"
  bottom: "dc_ip136"
  top: "dc_ip336"
  param {
    lr_mult: 10
  }
  param {
    lr_mult: 20
  }
  inner_product_param {
    num_output: 1
    weight_filler {
      type: "gaussian"
      std: 0.3
    }
    bias_filler {
      type: "constant"
    }
  }
  include: { phase: TRAIN }
}
layer {
  name: "dc_loss36"
  type: "SigmoidCrossEntropyLoss"
  bottom: "dc_ip336"
  bottom: "dc_labels"
  bottom: "weight36"
  top: "dc_loss36"
  loss_weight: 0.1
  include: { phase: TRAIN }
}
layer {
  name: "dc_ip137"
  type: "InnerProduct"
  bottom: "grl37"
  top: "dc_ip137"
  param {
    #name: "ip1_1"
    lr_mult: 10
  }
  param {
    #name: "ip1_2"
    lr_mult: 20
  }
  inner_product_param {
    num_output: 256
    weight_filler {
      type: "gaussian"
      std: 0.01
    }
    bias_filler {
      type: "constant"
    }
  }
  include: { phase: TRAIN }
}
layer {
  name: "dc_relu137"
  type: "ReLU"
  bottom: "dc_ip137"
  top: "dc_ip137"
  include: { phase: TRAIN }
}
layer {
  name: "dc_drop137"
  type: "Dropout"
  bottom: "dc_ip137"
  top: "dc_ip137"
  dropout_param {
    dropout_ratio: 0.5
  }
  include: { phase: TRAIN }
}
#layer {
#  name: "dc_ip237"
#  type: "InnerProduct"
#  bottom: "dc_ip137"
#  top: "dc_ip237"
#  param {
#    #name: "ip2_1"
#    lr_mult: 10
#  }
#  param {
#    #name: "ip2_2"
#    lr_mult: 20
#  }
#  inner_product_param {
#    num_output: 1024
#    weight_filler {
#      type: "gaussian"
#      std: 0.01
#    }
#    bias_filler {
#      type: "constant"
#    }
#  }
#  include: { phase: TRAIN }
#}
#layer {
#  name: "dc_relu237"
#  type: "ReLU"
#  bottom: "dc_ip237"
#  top: "dc_ip237"
#  include: { phase: TRAIN }
#}
#layer {
#  name: "dc_drop237"
#  type: "Dropout"
#  bottom: "dc_ip237"
#  top: "dc_ip237"
#  dropout_param {
#    dropout_ratio: 0.5
#  }
#  include: { phase: TRAIN }
#}
layer {
  name: "dc_ip337"
  type: "InnerProduct"
  bottom: "dc_ip137"
  top: "dc_ip337"
  param {
    lr_mult: 10
  }
  param {
    lr_mult: 20
  }
  inner_product_param {
    num_output: 1
    weight_filler {
      type: "gaussian"
      std: 0.3
    }
    bias_filler {
      type: "constant"
    }
  }
  include: { phase: TRAIN }
}
layer {
  name: "dc_loss37"
  type: "SigmoidCrossEntropyLoss"
  bottom: "dc_ip337"
  bottom: "dc_labels"
  bottom: "weight37"
  top: "dc_loss37"
  loss_weight: 0.1
  include: { phase: TRAIN }
}
layer {
  name: "dc_ip138"
  type: "InnerProduct"
  bottom: "grl38"
  top: "dc_ip138"
  param {
    #name: "ip1_1"
    lr_mult: 10
  }
  param {
    #name: "ip1_2"
    lr_mult: 20
  }
  inner_product_param {
    num_output: 256
    weight_filler {
      type: "gaussian"
      std: 0.01
    }
    bias_filler {
      type: "constant"
    }
  }
  include: { phase: TRAIN }
}
layer {
  name: "dc_relu138"
  type: "ReLU"
  bottom: "dc_ip138"
  top: "dc_ip138"
  include: { phase: TRAIN }
}
layer {
  name: "dc_drop138"
  type: "Dropout"
  bottom: "dc_ip138"
  top: "dc_ip138"
  dropout_param {
    dropout_ratio: 0.5
  }
  include: { phase: TRAIN }
}
#layer {
#  name: "dc_ip238"
#  type: "InnerProduct"
#  bottom: "dc_ip138"
#  top: "dc_ip238"
#  param {
#    #name: "ip2_1"
#    lr_mult: 10
#  }
#  param {
#    #name: "ip2_2"
#    lr_mult: 20
#  }
#  inner_product_param {
#    num_output: 1024
#    weight_filler {
#      type: "gaussian"
#      std: 0.01
#    }
#    bias_filler {
#      type: "constant"
#    }
#  }
#  include: { phase: TRAIN }
#}
#layer {
#  name: "dc_relu238"
#  type: "ReLU"
#  bottom: "dc_ip238"
#  top: "dc_ip238"
#  include: { phase: TRAIN }
#}
#layer {
#  name: "dc_drop238"
#  type: "Dropout"
#  bottom: "dc_ip238"
#  top: "dc_ip238"
#  dropout_param {
#    dropout_ratio: 0.5
#  }
#  include: { phase: TRAIN }
#}
layer {
  name: "dc_ip338"
  type: "InnerProduct"
  bottom: "dc_ip138"
  top: "dc_ip338"
  param {
    lr_mult: 10
  }
  param {
    lr_mult: 20
  }
  inner_product_param {
    num_output: 1
    weight_filler {
      type: "gaussian"
      std: 0.3
    }
    bias_filler {
      type: "constant"
    }
  }
  include: { phase: TRAIN }
}
layer {
  name: "dc_loss38"
  type: "SigmoidCrossEntropyLoss"
  bottom: "dc_ip338"
  bottom: "dc_labels"
  bottom: "weight38"
  top: "dc_loss38"
  loss_weight: 0.1
  include: { phase: TRAIN }
}
layer {
  name: "dc_ip139"
  type: "InnerProduct"
  bottom: "grl39"
  top: "dc_ip139"
  param {
    #name: "ip1_1"
    lr_mult: 10
  }
  param {
    #name: "ip1_2"
    lr_mult: 20
  }
  inner_product_param {
    num_output: 256
    weight_filler {
      type: "gaussian"
      std: 0.01
    }
    bias_filler {
      type: "constant"
    }
  }
  include: { phase: TRAIN }
}
layer {
  name: "dc_relu139"
  type: "ReLU"
  bottom: "dc_ip139"
  top: "dc_ip139"
  include: { phase: TRAIN }
}
layer {
  name: "dc_drop139"
  type: "Dropout"
  bottom: "dc_ip139"
  top: "dc_ip139"
  dropout_param {
    dropout_ratio: 0.5
  }
  include: { phase: TRAIN }
}
#layer {
#  name: "dc_ip239"
#  type: "InnerProduct"
#  bottom: "dc_ip139"
#  top: "dc_ip239"
#  param {
#    #name: "ip2_1"
#    lr_mult: 10
#  }
#  param {
#    #name: "ip2_2"
#    lr_mult: 20
#  }
#  inner_product_param {
#    num_output: 1024
#    weight_filler {
#      type: "gaussian"
#      std: 0.01
#    }
#    bias_filler {
#      type: "constant"
#    }
#  }
#  include: { phase: TRAIN }
#}
#layer {
#  name: "dc_relu239"
#  type: "ReLU"
#  bottom: "dc_ip239"
#  top: "dc_ip239"
#  include: { phase: TRAIN }
#}
#layer {
#  name: "dc_drop239"
#  type: "Dropout"
#  bottom: "dc_ip239"
#  top: "dc_ip239"
#  dropout_param {
#    dropout_ratio: 0.5
#  }
#  include: { phase: TRAIN }
#}
layer {
  name: "dc_ip339"
  type: "InnerProduct"
  bottom: "dc_ip139"
  top: "dc_ip339"
  param {
    lr_mult: 10
  }
  param {
    lr_mult: 20
  }
  inner_product_param {
    num_output: 1
    weight_filler {
      type: "gaussian"
      std: 0.3
    }
    bias_filler {
      type: "constant"
    }
  }
  include: { phase: TRAIN }
}
layer {
  name: "dc_loss39"
  type: "SigmoidCrossEntropyLoss"
  bottom: "dc_ip339"
  bottom: "dc_labels"
  bottom: "weight39"
  top: "dc_loss39"
  loss_weight: 0.1
  include: { phase: TRAIN }
}
layer {
  name: "dc_ip140"
  type: "InnerProduct"
  bottom: "grl40"
  top: "dc_ip140"
  param {
    #name: "ip1_1"
    lr_mult: 10
  }
  param {
    #name: "ip1_2"
    lr_mult: 20
  }
  inner_product_param {
    num_output: 256
    weight_filler {
      type: "gaussian"
      std: 0.01
    }
    bias_filler {
      type: "constant"
    }
  }
  include: { phase: TRAIN }
}
layer {
  name: "dc_relu140"
  type: "ReLU"
  bottom: "dc_ip140"
  top: "dc_ip140"
  include: { phase: TRAIN }
}
layer {
  name: "dc_drop140"
  type: "Dropout"
  bottom: "dc_ip140"
  top: "dc_ip140"
  dropout_param {
    dropout_ratio: 0.5
  }
  include: { phase: TRAIN }
}
#layer {
#  name: "dc_ip240"
#  type: "InnerProduct"
#  bottom: "dc_ip140"
#  top: "dc_ip240"
#  param {
#    #name: "ip2_1"
#    lr_mult: 10
#  }
#  param {
#    #name: "ip2_2"
#    lr_mult: 20
#  }
#  inner_product_param {
#    num_output: 1024
#    weight_filler {
#      type: "gaussian"
#      std: 0.01
#    }
#    bias_filler {
#      type: "constant"
#    }
#  }
#  include: { phase: TRAIN }
#}
#layer {
#  name: "dc_relu240"
#  type: "ReLU"
#  bottom: "dc_ip240"
#  top: "dc_ip240"
#  include: { phase: TRAIN }
#}
#layer {
#  name: "dc_drop240"
#  type: "Dropout"
#  bottom: "dc_ip240"
#  top: "dc_ip240"
#  dropout_param {
#    dropout_ratio: 0.5
#  }
#  include: { phase: TRAIN }
#}
layer {
  name: "dc_ip340"
  type: "InnerProduct"
  bottom: "dc_ip140"
  top: "dc_ip340"
  param {
    lr_mult: 10
  }
  param {
    lr_mult: 20
  }
  inner_product_param {
    num_output: 1
    weight_filler {
      type: "gaussian"
      std: 0.3
    }
    bias_filler {
      type: "constant"
    }
  }
  include: { phase: TRAIN }
}
layer {
  name: "dc_loss40"
  type: "SigmoidCrossEntropyLoss"
  bottom: "dc_ip340"
  bottom: "dc_labels"
  bottom: "weight40"
  top: "dc_loss40"
  loss_weight: 0.1
  include: { phase: TRAIN }
}
layer {
  name: "dc_ip141"
  type: "InnerProduct"
  bottom: "grl41"
  top: "dc_ip141"
  param {
    #name: "ip1_1"
    lr_mult: 10
  }
  param {
    #name: "ip1_2"
    lr_mult: 20
  }
  inner_product_param {
    num_output: 256
    weight_filler {
      type: "gaussian"
      std: 0.01
    }
    bias_filler {
      type: "constant"
    }
  }
  include: { phase: TRAIN }
}
layer {
  name: "dc_relu141"
  type: "ReLU"
  bottom: "dc_ip141"
  top: "dc_ip141"
  include: { phase: TRAIN }
}
layer {
  name: "dc_drop141"
  type: "Dropout"
  bottom: "dc_ip141"
  top: "dc_ip141"
  dropout_param {
    dropout_ratio: 0.5
  }
  include: { phase: TRAIN }
}
#layer {
#  name: "dc_ip241"
#  type: "InnerProduct"
#  bottom: "dc_ip141"
#  top: "dc_ip241"
#  param {
#    #name: "ip2_1"
#    lr_mult: 10
#  }
#  param {
#    #name: "ip2_2"
#    lr_mult: 20
#  }
#  inner_product_param {
#    num_output: 1024
#    weight_filler {
#      type: "gaussian"
#      std: 0.01
#    }
#    bias_filler {
#      type: "constant"
#    }
#  }
#  include: { phase: TRAIN }
#}
#layer {
#  name: "dc_relu241"
#  type: "ReLU"
#  bottom: "dc_ip241"
#  top: "dc_ip241"
#  include: { phase: TRAIN }
#}
#layer {
#  name: "dc_drop241"
#  type: "Dropout"
#  bottom: "dc_ip241"
#  top: "dc_ip241"
#  dropout_param {
#    dropout_ratio: 0.5
#  }
#  include: { phase: TRAIN }
#}
layer {
  name: "dc_ip341"
  type: "InnerProduct"
  bottom: "dc_ip141"
  top: "dc_ip341"
  param {
    lr_mult: 10
  }
  param {
    lr_mult: 20
  }
  inner_product_param {
    num_output: 1
    weight_filler {
      type: "gaussian"
      std: 0.3
    }
    bias_filler {
      type: "constant"
    }
  }
  include: { phase: TRAIN }
}
layer {
  name: "dc_loss41"
  type: "SigmoidCrossEntropyLoss"
  bottom: "dc_ip341"
  bottom: "dc_labels"
  bottom: "weight41"
  top: "dc_loss41"
  loss_weight: 0.1
  include: { phase: TRAIN }
}
layer {
  name: "dc_ip142"
  type: "InnerProduct"
  bottom: "grl42"
  top: "dc_ip142"
  param {
    #name: "ip1_1"
    lr_mult: 10
  }
  param {
    #name: "ip1_2"
    lr_mult: 20
  }
  inner_product_param {
    num_output: 256
    weight_filler {
      type: "gaussian"
      std: 0.01
    }
    bias_filler {
      type: "constant"
    }
  }
  include: { phase: TRAIN }
}
layer {
  name: "dc_relu142"
  type: "ReLU"
  bottom: "dc_ip142"
  top: "dc_ip142"
  include: { phase: TRAIN }
}
layer {
  name: "dc_drop142"
  type: "Dropout"
  bottom: "dc_ip142"
  top: "dc_ip142"
  dropout_param {
    dropout_ratio: 0.5
  }
  include: { phase: TRAIN }
}
#layer {
#  name: "dc_ip242"
#  type: "InnerProduct"
#  bottom: "dc_ip142"
#  top: "dc_ip242"
#  param {
#    #name: "ip2_1"
#    lr_mult: 10
#  }
#  param {
#    #name: "ip2_2"
#    lr_mult: 20
#  }
#  inner_product_param {
#    num_output: 1024
#    weight_filler {
#      type: "gaussian"
#      std: 0.01
#    }
#    bias_filler {
#      type: "constant"
#    }
#  }
#  include: { phase: TRAIN }
#}
#layer {
#  name: "dc_relu242"
#  type: "ReLU"
#  bottom: "dc_ip242"
#  top: "dc_ip242"
#  include: { phase: TRAIN }
#}
#layer {
#  name: "dc_drop242"
#  type: "Dropout"
#  bottom: "dc_ip242"
#  top: "dc_ip242"
#  dropout_param {
#    dropout_ratio: 0.5
#  }
#  include: { phase: TRAIN }
#}
layer {
  name: "dc_ip342"
  type: "InnerProduct"
  bottom: "dc_ip142"
  top: "dc_ip342"
  param {
    lr_mult: 10
  }
  param {
    lr_mult: 20
  }
  inner_product_param {
    num_output: 1
    weight_filler {
      type: "gaussian"
      std: 0.3
    }
    bias_filler {
      type: "constant"
    }
  }
  include: { phase: TRAIN }
}
layer {
  name: "dc_loss42"
  type: "SigmoidCrossEntropyLoss"
  bottom: "dc_ip342"
  bottom: "dc_labels"
  bottom: "weight42"
  top: "dc_loss42"
  loss_weight: 0.1
  include: { phase: TRAIN }
}
layer {
  name: "dc_ip143"
  type: "InnerProduct"
  bottom: "grl43"
  top: "dc_ip143"
  param {
    #name: "ip1_1"
    lr_mult: 10
  }
  param {
    #name: "ip1_2"
    lr_mult: 20
  }
  inner_product_param {
    num_output: 256
    weight_filler {
      type: "gaussian"
      std: 0.01
    }
    bias_filler {
      type: "constant"
    }
  }
  include: { phase: TRAIN }
}
layer {
  name: "dc_relu143"
  type: "ReLU"
  bottom: "dc_ip143"
  top: "dc_ip143"
  include: { phase: TRAIN }
}
layer {
  name: "dc_drop143"
  type: "Dropout"
  bottom: "dc_ip143"
  top: "dc_ip143"
  dropout_param {
    dropout_ratio: 0.5
  }
  include: { phase: TRAIN }
}
#layer {
#  name: "dc_ip243"
#  type: "InnerProduct"
#  bottom: "dc_ip143"
#  top: "dc_ip243"
#  param {
#    #name: "ip2_1"
#    lr_mult: 10
#  }
#  param {
#    #name: "ip2_2"
#    lr_mult: 20
#  }
#  inner_product_param {
#    num_output: 1024
#    weight_filler {
#      type: "gaussian"
#      std: 0.01
#    }
#    bias_filler {
#      type: "constant"
#    }
#  }
#  include: { phase: TRAIN }
#}
#layer {
#  name: "dc_relu243"
#  type: "ReLU"
#  bottom: "dc_ip243"
#  top: "dc_ip243"
#  include: { phase: TRAIN }
#}
#layer {
#  name: "dc_drop243"
#  type: "Dropout"
#  bottom: "dc_ip243"
#  top: "dc_ip243"
#  dropout_param {
#    dropout_ratio: 0.5
#  }
#  include: { phase: TRAIN }
#}
layer {
  name: "dc_ip343"
  type: "InnerProduct"
  bottom: "dc_ip143"
  top: "dc_ip343"
  param {
    lr_mult: 10
  }
  param {
    lr_mult: 20
  }
  inner_product_param {
    num_output: 1
    weight_filler {
      type: "gaussian"
      std: 0.3
    }
    bias_filler {
      type: "constant"
    }
  }
  include: { phase: TRAIN }
}
layer {
  name: "dc_loss43"
  type: "SigmoidCrossEntropyLoss"
  bottom: "dc_ip343"
  bottom: "dc_labels"
  bottom: "weight43"
  top: "dc_loss43"
  loss_weight: 0.1
  include: { phase: TRAIN }
}
layer {
  name: "dc_ip144"
  type: "InnerProduct"
  bottom: "grl44"
  top: "dc_ip144"
  param {
    #name: "ip1_1"
    lr_mult: 10
  }
  param {
    #name: "ip1_2"
    lr_mult: 20
  }
  inner_product_param {
    num_output: 256
    weight_filler {
      type: "gaussian"
      std: 0.01
    }
    bias_filler {
      type: "constant"
    }
  }
  include: { phase: TRAIN }
}
layer {
  name: "dc_relu144"
  type: "ReLU"
  bottom: "dc_ip144"
  top: "dc_ip144"
  include: { phase: TRAIN }
}
layer {
  name: "dc_drop144"
  type: "Dropout"
  bottom: "dc_ip144"
  top: "dc_ip144"
  dropout_param {
    dropout_ratio: 0.5
  }
  include: { phase: TRAIN }
}
#layer {
#  name: "dc_ip244"
#  type: "InnerProduct"
#  bottom: "dc_ip144"
#  top: "dc_ip244"
#  param {
#    #name: "ip2_1"
#    lr_mult: 10
#  }
#  param {
#    #name: "ip2_2"
#    lr_mult: 20
#  }
#  inner_product_param {
#    num_output: 1024
#    weight_filler {
#      type: "gaussian"
#      std: 0.01
#    }
#    bias_filler {
#      type: "constant"
#    }
#  }
#  include: { phase: TRAIN }
#}
#layer {
#  name: "dc_relu244"
#  type: "ReLU"
#  bottom: "dc_ip244"
#  top: "dc_ip244"
#  include: { phase: TRAIN }
#}
#layer {
#  name: "dc_drop244"
#  type: "Dropout"
#  bottom: "dc_ip244"
#  top: "dc_ip244"
#  dropout_param {
#    dropout_ratio: 0.5
#  }
#  include: { phase: TRAIN }
#}
layer {
  name: "dc_ip344"
  type: "InnerProduct"
  bottom: "dc_ip144"
  top: "dc_ip344"
  param {
    lr_mult: 10
  }
  param {
    lr_mult: 20
  }
  inner_product_param {
    num_output: 1
    weight_filler {
      type: "gaussian"
      std: 0.3
    }
    bias_filler {
      type: "constant"
    }
  }
  include: { phase: TRAIN }
}
layer {
  name: "dc_loss44"
  type: "SigmoidCrossEntropyLoss"
  bottom: "dc_ip344"
  bottom: "dc_labels"
  bottom: "weight44"
  top: "dc_loss44"
  loss_weight: 0.1
  include: { phase: TRAIN }
}
layer {
  name: "dc_ip145"
  type: "InnerProduct"
  bottom: "grl45"
  top: "dc_ip145"
  param {
    #name: "ip1_1"
    lr_mult: 10
  }
  param {
    #name: "ip1_2"
    lr_mult: 20
  }
  inner_product_param {
    num_output: 256
    weight_filler {
      type: "gaussian"
      std: 0.01
    }
    bias_filler {
      type: "constant"
    }
  }
  include: { phase: TRAIN }
}
layer {
  name: "dc_relu145"
  type: "ReLU"
  bottom: "dc_ip145"
  top: "dc_ip145"
  include: { phase: TRAIN }
}
layer {
  name: "dc_drop145"
  type: "Dropout"
  bottom: "dc_ip145"
  top: "dc_ip145"
  dropout_param {
    dropout_ratio: 0.5
  }
  include: { phase: TRAIN }
}
#layer {
#  name: "dc_ip245"
#  type: "InnerProduct"
#  bottom: "dc_ip145"
#  top: "dc_ip245"
#  param {
#    #name: "ip2_1"
#    lr_mult: 10
#  }
#  param {
#    #name: "ip2_2"
#    lr_mult: 20
#  }
#  inner_product_param {
#    num_output: 1024
#    weight_filler {
#      type: "gaussian"
#      std: 0.01
#    }
#    bias_filler {
#      type: "constant"
#    }
#  }
#  include: { phase: TRAIN }
#}
#layer {
#  name: "dc_relu245"
#  type: "ReLU"
#  bottom: "dc_ip245"
#  top: "dc_ip245"
#  include: { phase: TRAIN }
#}
#layer {
#  name: "dc_drop245"
#  type: "Dropout"
#  bottom: "dc_ip245"
#  top: "dc_ip245"
#  dropout_param {
#    dropout_ratio: 0.5
#  }
#  include: { phase: TRAIN }
#}
layer {
  name: "dc_ip345"
  type: "InnerProduct"
  bottom: "dc_ip145"
  top: "dc_ip345"
  param {
    lr_mult: 10
  }
  param {
    lr_mult: 20
  }
  inner_product_param {
    num_output: 1
    weight_filler {
      type: "gaussian"
      std: 0.3
    }
    bias_filler {
      type: "constant"
    }
  }
  include: { phase: TRAIN }
}
layer {
  name: "dc_loss45"
  type: "SigmoidCrossEntropyLoss"
  bottom: "dc_ip345"
  bottom: "dc_labels"
  bottom: "weight45"
  top: "dc_loss45"
  loss_weight: 0.1
  include: { phase: TRAIN }
}
layer {
  name: "dc_ip146"
  type: "InnerProduct"
  bottom: "grl46"
  top: "dc_ip146"
  param {
    #name: "ip1_1"
    lr_mult: 10
  }
  param {
    #name: "ip1_2"
    lr_mult: 20
  }
  inner_product_param {
    num_output: 256
    weight_filler {
      type: "gaussian"
      std: 0.01
    }
    bias_filler {
      type: "constant"
    }
  }
  include: { phase: TRAIN }
}
layer {
  name: "dc_relu146"
  type: "ReLU"
  bottom: "dc_ip146"
  top: "dc_ip146"
  include: { phase: TRAIN }
}
layer {
  name: "dc_drop146"
  type: "Dropout"
  bottom: "dc_ip146"
  top: "dc_ip146"
  dropout_param {
    dropout_ratio: 0.5
  }
  include: { phase: TRAIN }
}
#layer {
#  name: "dc_ip246"
#  type: "InnerProduct"
#  bottom: "dc_ip146"
#  top: "dc_ip246"
#  param {
#    #name: "ip2_1"
#    lr_mult: 10
#  }
#  param {
#    #name: "ip2_2"
#    lr_mult: 20
#  }
#  inner_product_param {
#    num_output: 1024
#    weight_filler {
#      type: "gaussian"
#      std: 0.01
#    }
#    bias_filler {
#      type: "constant"
#    }
#  }
#  include: { phase: TRAIN }
#}
#layer {
#  name: "dc_relu246"
#  type: "ReLU"
#  bottom: "dc_ip246"
#  top: "dc_ip246"
#  include: { phase: TRAIN }
#}
#layer {
#  name: "dc_drop246"
#  type: "Dropout"
#  bottom: "dc_ip246"
#  top: "dc_ip246"
#  dropout_param {
#    dropout_ratio: 0.5
#  }
#  include: { phase: TRAIN }
#}
layer {
  name: "dc_ip346"
  type: "InnerProduct"
  bottom: "dc_ip146"
  top: "dc_ip346"
  param {
    lr_mult: 10
  }
  param {
    lr_mult: 20
  }
  inner_product_param {
    num_output: 1
    weight_filler {
      type: "gaussian"
      std: 0.3
    }
    bias_filler {
      type: "constant"
    }
  }
  include: { phase: TRAIN }
}
layer {
  name: "dc_loss46"
  type: "SigmoidCrossEntropyLoss"
  bottom: "dc_ip346"
  bottom: "dc_labels"
  bottom: "weight46"
  top: "dc_loss46"
  loss_weight: 0.1
  include: { phase: TRAIN }
}
layer {
  name: "dc_ip147"
  type: "InnerProduct"
  bottom: "grl47"
  top: "dc_ip147"
  param {
    #name: "ip1_1"
    lr_mult: 10
  }
  param {
    #name: "ip1_2"
    lr_mult: 20
  }
  inner_product_param {
    num_output: 256
    weight_filler {
      type: "gaussian"
      std: 0.01
    }
    bias_filler {
      type: "constant"
    }
  }
  include: { phase: TRAIN }
}
layer {
  name: "dc_relu147"
  type: "ReLU"
  bottom: "dc_ip147"
  top: "dc_ip147"
  include: { phase: TRAIN }
}
layer {
  name: "dc_drop147"
  type: "Dropout"
  bottom: "dc_ip147"
  top: "dc_ip147"
  dropout_param {
    dropout_ratio: 0.5
  }
  include: { phase: TRAIN }
}
#layer {
#  name: "dc_ip247"
#  type: "InnerProduct"
#  bottom: "dc_ip147"
#  top: "dc_ip247"
#  param {
#    #name: "ip2_1"
#    lr_mult: 10
#  }
#  param {
#    #name: "ip2_2"
#    lr_mult: 20
#  }
#  inner_product_param {
#    num_output: 1024
#    weight_filler {
#      type: "gaussian"
#      std: 0.01
#    }
#    bias_filler {
#      type: "constant"
#    }
#  }
#  include: { phase: TRAIN }
#}
#layer {
#  name: "dc_relu247"
#  type: "ReLU"
#  bottom: "dc_ip247"
#  top: "dc_ip247"
#  include: { phase: TRAIN }
#}
#layer {
#  name: "dc_drop247"
#  type: "Dropout"
#  bottom: "dc_ip247"
#  top: "dc_ip247"
#  dropout_param {
#    dropout_ratio: 0.5
#  }
#  include: { phase: TRAIN }
#}
layer {
  name: "dc_ip347"
  type: "InnerProduct"
  bottom: "dc_ip147"
  top: "dc_ip347"
  param {
    lr_mult: 10
  }
  param {
    lr_mult: 20
  }
  inner_product_param {
    num_output: 1
    weight_filler {
      type: "gaussian"
      std: 0.3
    }
    bias_filler {
      type: "constant"
    }
  }
  include: { phase: TRAIN }
}
layer {
  name: "dc_loss47"
  type: "SigmoidCrossEntropyLoss"
  bottom: "dc_ip347"
  bottom: "dc_labels"
  bottom: "weight47"
  top: "dc_loss47"
  loss_weight: 0.1
  include: { phase: TRAIN }
}
layer {
  name: "dc_ip148"
  type: "InnerProduct"
  bottom: "grl48"
  top: "dc_ip148"
  param {
    #name: "ip1_1"
    lr_mult: 10
  }
  param {
    #name: "ip1_2"
    lr_mult: 20
  }
  inner_product_param {
    num_output: 256
    weight_filler {
      type: "gaussian"
      std: 0.01
    }
    bias_filler {
      type: "constant"
    }
  }
  include: { phase: TRAIN }
}
layer {
  name: "dc_relu148"
  type: "ReLU"
  bottom: "dc_ip148"
  top: "dc_ip148"
  include: { phase: TRAIN }
}
layer {
  name: "dc_drop148"
  type: "Dropout"
  bottom: "dc_ip148"
  top: "dc_ip148"
  dropout_param {
    dropout_ratio: 0.5
  }
  include: { phase: TRAIN }
}
#layer {
#  name: "dc_ip248"
#  type: "InnerProduct"
#  bottom: "dc_ip148"
#  top: "dc_ip248"
#  param {
#    #name: "ip2_1"
#    lr_mult: 10
#  }
#  param {
#    #name: "ip2_2"
#    lr_mult: 20
#  }
#  inner_product_param {
#    num_output: 1024
#    weight_filler {
#      type: "gaussian"
#      std: 0.01
#    }
#    bias_filler {
#      type: "constant"
#    }
#  }
#  include: { phase: TRAIN }
#}
#layer {
#  name: "dc_relu248"
#  type: "ReLU"
#  bottom: "dc_ip248"
#  top: "dc_ip248"
#  include: { phase: TRAIN }
#}
#layer {
#  name: "dc_drop248"
#  type: "Dropout"
#  bottom: "dc_ip248"
#  top: "dc_ip248"
#  dropout_param {
#    dropout_ratio: 0.5
#  }
#  include: { phase: TRAIN }
#}
layer {
  name: "dc_ip348"
  type: "InnerProduct"
  bottom: "dc_ip148"
  top: "dc_ip348"
  param {
    lr_mult: 10
  }
  param {
    lr_mult: 20
  }
  inner_product_param {
    num_output: 1
    weight_filler {
      type: "gaussian"
      std: 0.3
    }
    bias_filler {
      type: "constant"
    }
  }
  include: { phase: TRAIN }
}
layer {
  name: "dc_loss48"
  type: "SigmoidCrossEntropyLoss"
  bottom: "dc_ip348"
  bottom: "dc_labels"
  bottom: "weight48"
  top: "dc_loss48"
  loss_weight: 0.1
  include: { phase: TRAIN }
}
layer {
  name: "dc_ip149"
  type: "InnerProduct"
  bottom: "grl49"
  top: "dc_ip149"
  param {
    #name: "ip1_1"
    lr_mult: 10
  }
  param {
    #name: "ip1_2"
    lr_mult: 20
  }
  inner_product_param {
    num_output: 256
    weight_filler {
      type: "gaussian"
      std: 0.01
    }
    bias_filler {
      type: "constant"
    }
  }
  include: { phase: TRAIN }
}
layer {
  name: "dc_relu149"
  type: "ReLU"
  bottom: "dc_ip149"
  top: "dc_ip149"
  include: { phase: TRAIN }
}
layer {
  name: "dc_drop149"
  type: "Dropout"
  bottom: "dc_ip149"
  top: "dc_ip149"
  dropout_param {
    dropout_ratio: 0.5
  }
  include: { phase: TRAIN }
}
#layer {
#  name: "dc_ip249"
#  type: "InnerProduct"
#  bottom: "dc_ip149"
#  top: "dc_ip249"
#  param {
#    #name: "ip2_1"
#    lr_mult: 10
#  }
#  param {
#    #name: "ip2_2"
#    lr_mult: 20
#  }
#  inner_product_param {
#    num_output: 1024
#    weight_filler {
#      type: "gaussian"
#      std: 0.01
#    }
#    bias_filler {
#      type: "constant"
#    }
#  }
#  include: { phase: TRAIN }
#}
#layer {
#  name: "dc_relu249"
#  type: "ReLU"
#  bottom: "dc_ip249"
#  top: "dc_ip249"
#  include: { phase: TRAIN }
#}
#layer {
#  name: "dc_drop249"
#  type: "Dropout"
#  bottom: "dc_ip249"
#  top: "dc_ip249"
#  dropout_param {
#    dropout_ratio: 0.5
#  }
#  include: { phase: TRAIN }
#}
layer {
  name: "dc_ip349"
  type: "InnerProduct"
  bottom: "dc_ip149"
  top: "dc_ip349"
  param {
    lr_mult: 10
  }
  param {
    lr_mult: 20
  }
  inner_product_param {
    num_output: 1
    weight_filler {
      type: "gaussian"
      std: 0.3
    }
    bias_filler {
      type: "constant"
    }
  }
  include: { phase: TRAIN }
}
layer {
  name: "dc_loss49"
  type: "SigmoidCrossEntropyLoss"
  bottom: "dc_ip349"
  bottom: "dc_labels"
  bottom: "weight49"
  top: "dc_loss49"
  loss_weight: 0.1
  include: { phase: TRAIN }
}
layer {
  name: "dc_ip150"
  type: "InnerProduct"
  bottom: "grl50"
  top: "dc_ip150"
  param {
    #name: "ip1_1"
    lr_mult: 10
  }
  param {
    #name: "ip1_2"
    lr_mult: 20
  }
  inner_product_param {
    num_output: 256
    weight_filler {
      type: "gaussian"
      std: 0.01
    }
    bias_filler {
      type: "constant"
    }
  }
  include: { phase: TRAIN }
}
layer {
  name: "dc_relu150"
  type: "ReLU"
  bottom: "dc_ip150"
  top: "dc_ip150"
  include: { phase: TRAIN }
}
layer {
  name: "dc_drop150"
  type: "Dropout"
  bottom: "dc_ip150"
  top: "dc_ip150"
  dropout_param {
    dropout_ratio: 0.5
  }
  include: { phase: TRAIN }
}
#layer {
#  name: "dc_ip250"
#  type: "InnerProduct"
#  bottom: "dc_ip150"
#  top: "dc_ip250"
#  param {
#    #name: "ip2_1"
#    lr_mult: 10
#  }
#  param {
#    #name: "ip2_2"
#    lr_mult: 20
#  }
#  inner_product_param {
#    num_output: 1024
#    weight_filler {
#      type: "gaussian"
#      std: 0.01
#    }
#    bias_filler {
#      type: "constant"
#    }
#  }
#  include: { phase: TRAIN }
#}
#layer {
#  name: "dc_relu250"
#  type: "ReLU"
#  bottom: "dc_ip250"
#  top: "dc_ip250"
#  include: { phase: TRAIN }
#}
#layer {
#  name: "dc_drop250"
#  type: "Dropout"
#  bottom: "dc_ip250"
#  top: "dc_ip250"
#  dropout_param {
#    dropout_ratio: 0.5
#  }
#  include: { phase: TRAIN }
#}
layer {
  name: "dc_ip350"
  type: "InnerProduct"
  bottom: "dc_ip150"
  top: "dc_ip350"
  param {
    lr_mult: 10
  }
  param {
    lr_mult: 20
  }
  inner_product_param {
    num_output: 1
    weight_filler {
      type: "gaussian"
      std: 0.3
    }
    bias_filler {
      type: "constant"
    }
  }
  include: { phase: TRAIN }
}
layer {
  name: "dc_loss50"
  type: "SigmoidCrossEntropyLoss"
  bottom: "dc_ip350"
  bottom: "dc_labels"
  bottom: "weight50"
  top: "dc_loss50"
  loss_weight: 0.1
  include: { phase: TRAIN }
}
layer {
  name: "dc_ip151"
  type: "InnerProduct"
  bottom: "grl51"
  top: "dc_ip151"
  param {
    #name: "ip1_1"
    lr_mult: 10
  }
  param {
    #name: "ip1_2"
    lr_mult: 20
  }
  inner_product_param {
    num_output: 256
    weight_filler {
      type: "gaussian"
      std: 0.01
    }
    bias_filler {
      type: "constant"
    }
  }
  include: { phase: TRAIN }
}
layer {
  name: "dc_relu151"
  type: "ReLU"
  bottom: "dc_ip151"
  top: "dc_ip151"
  include: { phase: TRAIN }
}
layer {
  name: "dc_drop151"
  type: "Dropout"
  bottom: "dc_ip151"
  top: "dc_ip151"
  dropout_param {
    dropout_ratio: 0.5
  }
  include: { phase: TRAIN }
}
#layer {
#  name: "dc_ip251"
#  type: "InnerProduct"
#  bottom: "dc_ip151"
#  top: "dc_ip251"
#  param {
#    #name: "ip2_1"
#    lr_mult: 10
#  }
#  param {
#    #name: "ip2_2"
#    lr_mult: 20
#  }
#  inner_product_param {
#    num_output: 1024
#    weight_filler {
#      type: "gaussian"
#      std: 0.01
#    }
#    bias_filler {
#      type: "constant"
#    }
#  }
#  include: { phase: TRAIN }
#}
#layer {
#  name: "dc_relu251"
#  type: "ReLU"
#  bottom: "dc_ip251"
#  top: "dc_ip251"
#  include: { phase: TRAIN }
#}
#layer {
#  name: "dc_drop251"
#  type: "Dropout"
#  bottom: "dc_ip251"
#  top: "dc_ip251"
#  dropout_param {
#    dropout_ratio: 0.5
#  }
#  include: { phase: TRAIN }
#}
layer {
  name: "dc_ip351"
  type: "InnerProduct"
  bottom: "dc_ip151"
  top: "dc_ip351"
  param {
    lr_mult: 10
  }
  param {
    lr_mult: 20
  }
  inner_product_param {
    num_output: 1
    weight_filler {
      type: "gaussian"
      std: 0.3
    }
    bias_filler {
      type: "constant"
    }
  }
  include: { phase: TRAIN }
}
layer {
  name: "dc_loss51"
  type: "SigmoidCrossEntropyLoss"
  bottom: "dc_ip351"
  bottom: "dc_labels"
  bottom: "weight51"
  top: "dc_loss51"
  loss_weight: 0.1
  include: { phase: TRAIN }
}
layer {
  name: "dc_ip152"
  type: "InnerProduct"
  bottom: "grl52"
  top: "dc_ip152"
  param {
    #name: "ip1_1"
    lr_mult: 10
  }
  param {
    #name: "ip1_2"
    lr_mult: 20
  }
  inner_product_param {
    num_output: 256
    weight_filler {
      type: "gaussian"
      std: 0.01
    }
    bias_filler {
      type: "constant"
    }
  }
  include: { phase: TRAIN }
}
layer {
  name: "dc_relu152"
  type: "ReLU"
  bottom: "dc_ip152"
  top: "dc_ip152"
  include: { phase: TRAIN }
}
layer {
  name: "dc_drop152"
  type: "Dropout"
  bottom: "dc_ip152"
  top: "dc_ip152"
  dropout_param {
    dropout_ratio: 0.5
  }
  include: { phase: TRAIN }
}
#layer {
#  name: "dc_ip252"
#  type: "InnerProduct"
#  bottom: "dc_ip152"
#  top: "dc_ip252"
#  param {
#    #name: "ip2_1"
#    lr_mult: 10
#  }
#  param {
#    #name: "ip2_2"
#    lr_mult: 20
#  }
#  inner_product_param {
#    num_output: 1024
#    weight_filler {
#      type: "gaussian"
#      std: 0.01
#    }
#    bias_filler {
#      type: "constant"
#    }
#  }
#  include: { phase: TRAIN }
#}
#layer {
#  name: "dc_relu252"
#  type: "ReLU"
#  bottom: "dc_ip252"
#  top: "dc_ip252"
#  include: { phase: TRAIN }
#}
#layer {
#  name: "dc_drop252"
#  type: "Dropout"
#  bottom: "dc_ip252"
#  top: "dc_ip252"
#  dropout_param {
#    dropout_ratio: 0.5
#  }
#  include: { phase: TRAIN }
#}
layer {
  name: "dc_ip352"
  type: "InnerProduct"
  bottom: "dc_ip152"
  top: "dc_ip352"
  param {
    lr_mult: 10
  }
  param {
    lr_mult: 20
  }
  inner_product_param {
    num_output: 1
    weight_filler {
      type: "gaussian"
      std: 0.3
    }
    bias_filler {
      type: "constant"
    }
  }
  include: { phase: TRAIN }
}
layer {
  name: "dc_loss52"
  type: "SigmoidCrossEntropyLoss"
  bottom: "dc_ip352"
  bottom: "dc_labels"
  bottom: "weight52"
  top: "dc_loss52"
  loss_weight: 0.1
  include: { phase: TRAIN }
}
layer {
  name: "dc_ip153"
  type: "InnerProduct"
  bottom: "grl53"
  top: "dc_ip153"
  param {
    #name: "ip1_1"
    lr_mult: 10
  }
  param {
    #name: "ip1_2"
    lr_mult: 20
  }
  inner_product_param {
    num_output: 256
    weight_filler {
      type: "gaussian"
      std: 0.01
    }
    bias_filler {
      type: "constant"
    }
  }
  include: { phase: TRAIN }
}
layer {
  name: "dc_relu153"
  type: "ReLU"
  bottom: "dc_ip153"
  top: "dc_ip153"
  include: { phase: TRAIN }
}
layer {
  name: "dc_drop153"
  type: "Dropout"
  bottom: "dc_ip153"
  top: "dc_ip153"
  dropout_param {
    dropout_ratio: 0.5
  }
  include: { phase: TRAIN }
}
#layer {
#  name: "dc_ip253"
#  type: "InnerProduct"
#  bottom: "dc_ip153"
#  top: "dc_ip253"
#  param {
#    #name: "ip2_1"
#    lr_mult: 10
#  }
#  param {
#    #name: "ip2_2"
#    lr_mult: 20
#  }
#  inner_product_param {
#    num_output: 1024
#    weight_filler {
#      type: "gaussian"
#      std: 0.01
#    }
#    bias_filler {
#      type: "constant"
#    }
#  }
#  include: { phase: TRAIN }
#}
#layer {
#  name: "dc_relu253"
#  type: "ReLU"
#  bottom: "dc_ip253"
#  top: "dc_ip253"
#  include: { phase: TRAIN }
#}
#layer {
#  name: "dc_drop253"
#  type: "Dropout"
#  bottom: "dc_ip253"
#  top: "dc_ip253"
#  dropout_param {
#    dropout_ratio: 0.5
#  }
#  include: { phase: TRAIN }
#}
layer {
  name: "dc_ip353"
  type: "InnerProduct"
  bottom: "dc_ip153"
  top: "dc_ip353"
  param {
    lr_mult: 10
  }
  param {
    lr_mult: 20
  }
  inner_product_param {
    num_output: 1
    weight_filler {
      type: "gaussian"
      std: 0.3
    }
    bias_filler {
      type: "constant"
    }
  }
  include: { phase: TRAIN }
}
layer {
  name: "dc_loss53"
  type: "SigmoidCrossEntropyLoss"
  bottom: "dc_ip353"
  bottom: "dc_labels"
  bottom: "weight53"
  top: "dc_loss53"
  loss_weight: 0.1
  include: { phase: TRAIN }
}
layer {
  name: "dc_ip154"
  type: "InnerProduct"
  bottom: "grl54"
  top: "dc_ip154"
  param {
    #name: "ip1_1"
    lr_mult: 10
  }
  param {
    #name: "ip1_2"
    lr_mult: 20
  }
  inner_product_param {
    num_output: 256
    weight_filler {
      type: "gaussian"
      std: 0.01
    }
    bias_filler {
      type: "constant"
    }
  }
  include: { phase: TRAIN }
}
layer {
  name: "dc_relu154"
  type: "ReLU"
  bottom: "dc_ip154"
  top: "dc_ip154"
  include: { phase: TRAIN }
}
layer {
  name: "dc_drop154"
  type: "Dropout"
  bottom: "dc_ip154"
  top: "dc_ip154"
  dropout_param {
    dropout_ratio: 0.5
  }
  include: { phase: TRAIN }
}
#layer {
#  name: "dc_ip254"
#  type: "InnerProduct"
#  bottom: "dc_ip154"
#  top: "dc_ip254"
#  param {
#    #name: "ip2_1"
#    lr_mult: 10
#  }
#  param {
#    #name: "ip2_2"
#    lr_mult: 20
#  }
#  inner_product_param {
#    num_output: 1024
#    weight_filler {
#      type: "gaussian"
#      std: 0.01
#    }
#    bias_filler {
#      type: "constant"
#    }
#  }
#  include: { phase: TRAIN }
#}
#layer {
#  name: "dc_relu254"
#  type: "ReLU"
#  bottom: "dc_ip254"
#  top: "dc_ip254"
#  include: { phase: TRAIN }
#}
#layer {
#  name: "dc_drop254"
#  type: "Dropout"
#  bottom: "dc_ip254"
#  top: "dc_ip254"
#  dropout_param {
#    dropout_ratio: 0.5
#  }
#  include: { phase: TRAIN }
#}
layer {
  name: "dc_ip354"
  type: "InnerProduct"
  bottom: "dc_ip154"
  top: "dc_ip354"
  param {
    lr_mult: 10
  }
  param {
    lr_mult: 20
  }
  inner_product_param {
    num_output: 1
    weight_filler {
      type: "gaussian"
      std: 0.3
    }
    bias_filler {
      type: "constant"
    }
  }
  include: { phase: TRAIN }
}
layer {
  name: "dc_loss54"
  type: "SigmoidCrossEntropyLoss"
  bottom: "dc_ip354"
  bottom: "dc_labels"
  bottom: "weight54"
  top: "dc_loss54"
  loss_weight: 0.1
  include: { phase: TRAIN }
}
layer {
  name: "dc_ip155"
  type: "InnerProduct"
  bottom: "grl55"
  top: "dc_ip155"
  param {
    #name: "ip1_1"
    lr_mult: 10
  }
  param {
    #name: "ip1_2"
    lr_mult: 20
  }
  inner_product_param {
    num_output: 256
    weight_filler {
      type: "gaussian"
      std: 0.01
    }
    bias_filler {
      type: "constant"
    }
  }
  include: { phase: TRAIN }
}
layer {
  name: "dc_relu155"
  type: "ReLU"
  bottom: "dc_ip155"
  top: "dc_ip155"
  include: { phase: TRAIN }
}
layer {
  name: "dc_drop155"
  type: "Dropout"
  bottom: "dc_ip155"
  top: "dc_ip155"
  dropout_param {
    dropout_ratio: 0.5
  }
  include: { phase: TRAIN }
}
#layer {
#  name: "dc_ip255"
#  type: "InnerProduct"
#  bottom: "dc_ip155"
#  top: "dc_ip255"
#  param {
#    #name: "ip2_1"
#    lr_mult: 10
#  }
#  param {
#    #name: "ip2_2"
#    lr_mult: 20
#  }
#  inner_product_param {
#    num_output: 1024
#    weight_filler {
#      type: "gaussian"
#      std: 0.01
#    }
#    bias_filler {
#      type: "constant"
#    }
#  }
#  include: { phase: TRAIN }
#}
#layer {
#  name: "dc_relu255"
#  type: "ReLU"
#  bottom: "dc_ip255"
#  top: "dc_ip255"
#  include: { phase: TRAIN }
#}
#layer {
#  name: "dc_drop255"
#  type: "Dropout"
#  bottom: "dc_ip255"
#  top: "dc_ip255"
#  dropout_param {
#    dropout_ratio: 0.5
#  }
#  include: { phase: TRAIN }
#}
layer {
  name: "dc_ip355"
  type: "InnerProduct"
  bottom: "dc_ip155"
  top: "dc_ip355"
  param {
    lr_mult: 10
  }
  param {
    lr_mult: 20
  }
  inner_product_param {
    num_output: 1
    weight_filler {
      type: "gaussian"
      std: 0.3
    }
    bias_filler {
      type: "constant"
    }
  }
  include: { phase: TRAIN }
}
layer {
  name: "dc_loss55"
  type: "SigmoidCrossEntropyLoss"
  bottom: "dc_ip355"
  bottom: "dc_labels"
  bottom: "weight55"
  top: "dc_loss55"
  loss_weight: 0.1
  include: { phase: TRAIN }
}
layer {
  name: "dc_ip156"
  type: "InnerProduct"
  bottom: "grl56"
  top: "dc_ip156"
  param {
    #name: "ip1_1"
    lr_mult: 10
  }
  param {
    #name: "ip1_2"
    lr_mult: 20
  }
  inner_product_param {
    num_output: 256
    weight_filler {
      type: "gaussian"
      std: 0.01
    }
    bias_filler {
      type: "constant"
    }
  }
  include: { phase: TRAIN }
}
layer {
  name: "dc_relu156"
  type: "ReLU"
  bottom: "dc_ip156"
  top: "dc_ip156"
  include: { phase: TRAIN }
}
layer {
  name: "dc_drop156"
  type: "Dropout"
  bottom: "dc_ip156"
  top: "dc_ip156"
  dropout_param {
    dropout_ratio: 0.5
  }
  include: { phase: TRAIN }
}
#layer {
#  name: "dc_ip256"
#  type: "InnerProduct"
#  bottom: "dc_ip156"
#  top: "dc_ip256"
#  param {
#    #name: "ip2_1"
#    lr_mult: 10
#  }
#  param {
#    #name: "ip2_2"
#    lr_mult: 20
#  }
#  inner_product_param {
#    num_output: 1024
#    weight_filler {
#      type: "gaussian"
#      std: 0.01
#    }
#    bias_filler {
#      type: "constant"
#    }
#  }
#  include: { phase: TRAIN }
#}
#layer {
#  name: "dc_relu256"
#  type: "ReLU"
#  bottom: "dc_ip256"
#  top: "dc_ip256"
#  include: { phase: TRAIN }
#}
#layer {
#  name: "dc_drop256"
#  type: "Dropout"
#  bottom: "dc_ip256"
#  top: "dc_ip256"
#  dropout_param {
#    dropout_ratio: 0.5
#  }
#  include: { phase: TRAIN }
#}
layer {
  name: "dc_ip356"
  type: "InnerProduct"
  bottom: "dc_ip156"
  top: "dc_ip356"
  param {
    lr_mult: 10
  }
  param {
    lr_mult: 20
  }
  inner_product_param {
    num_output: 1
    weight_filler {
      type: "gaussian"
      std: 0.3
    }
    bias_filler {
      type: "constant"
    }
  }
  include: { phase: TRAIN }
}
layer {
  name: "dc_loss56"
  type: "SigmoidCrossEntropyLoss"
  bottom: "dc_ip356"
  bottom: "dc_labels"
  bottom: "weight56"
  top: "dc_loss56"
  loss_weight: 0.1
  include: { phase: TRAIN }
}
layer {
  name: "dc_ip157"
  type: "InnerProduct"
  bottom: "grl57"
  top: "dc_ip157"
  param {
    #name: "ip1_1"
    lr_mult: 10
  }
  param {
    #name: "ip1_2"
    lr_mult: 20
  }
  inner_product_param {
    num_output: 256
    weight_filler {
      type: "gaussian"
      std: 0.01
    }
    bias_filler {
      type: "constant"
    }
  }
  include: { phase: TRAIN }
}
layer {
  name: "dc_relu157"
  type: "ReLU"
  bottom: "dc_ip157"
  top: "dc_ip157"
  include: { phase: TRAIN }
}
layer {
  name: "dc_drop157"
  type: "Dropout"
  bottom: "dc_ip157"
  top: "dc_ip157"
  dropout_param {
    dropout_ratio: 0.5
  }
  include: { phase: TRAIN }
}
#layer {
#  name: "dc_ip257"
#  type: "InnerProduct"
#  bottom: "dc_ip157"
#  top: "dc_ip257"
#  param {
#    #name: "ip2_1"
#    lr_mult: 10
#  }
#  param {
#    #name: "ip2_2"
#    lr_mult: 20
#  }
#  inner_product_param {
#    num_output: 1024
#    weight_filler {
#      type: "gaussian"
#      std: 0.01
#    }
#    bias_filler {
#      type: "constant"
#    }
#  }
#  include: { phase: TRAIN }
#}
#layer {
#  name: "dc_relu257"
#  type: "ReLU"
#  bottom: "dc_ip257"
#  top: "dc_ip257"
#  include: { phase: TRAIN }
#}
#layer {
#  name: "dc_drop257"
#  type: "Dropout"
#  bottom: "dc_ip257"
#  top: "dc_ip257"
#  dropout_param {
#    dropout_ratio: 0.5
#  }
#  include: { phase: TRAIN }
#}
layer {
  name: "dc_ip357"
  type: "InnerProduct"
  bottom: "dc_ip157"
  top: "dc_ip357"
  param {
    lr_mult: 10
  }
  param {
    lr_mult: 20
  }
  inner_product_param {
    num_output: 1
    weight_filler {
      type: "gaussian"
      std: 0.3
    }
    bias_filler {
      type: "constant"
    }
  }
  include: { phase: TRAIN }
}
layer {
  name: "dc_loss57"
  type: "SigmoidCrossEntropyLoss"
  bottom: "dc_ip357"
  bottom: "dc_labels"
  bottom: "weight57"
  top: "dc_loss57"
  loss_weight: 0.1
  include: { phase: TRAIN }
}
layer {
  name: "dc_ip158"
  type: "InnerProduct"
  bottom: "grl58"
  top: "dc_ip158"
  param {
    #name: "ip1_1"
    lr_mult: 10
  }
  param {
    #name: "ip1_2"
    lr_mult: 20
  }
  inner_product_param {
    num_output: 256
    weight_filler {
      type: "gaussian"
      std: 0.01
    }
    bias_filler {
      type: "constant"
    }
  }
  include: { phase: TRAIN }
}
layer {
  name: "dc_relu158"
  type: "ReLU"
  bottom: "dc_ip158"
  top: "dc_ip158"
  include: { phase: TRAIN }
}
layer {
  name: "dc_drop158"
  type: "Dropout"
  bottom: "dc_ip158"
  top: "dc_ip158"
  dropout_param {
    dropout_ratio: 0.5
  }
  include: { phase: TRAIN }
}
#layer {
#  name: "dc_ip258"
#  type: "InnerProduct"
#  bottom: "dc_ip158"
#  top: "dc_ip258"
#  param {
#    #name: "ip2_1"
#    lr_mult: 10
#  }
#  param {
#    #name: "ip2_2"
#    lr_mult: 20
#  }
#  inner_product_param {
#    num_output: 1024
#    weight_filler {
#      type: "gaussian"
#      std: 0.01
#    }
#    bias_filler {
#      type: "constant"
#    }
#  }
#  include: { phase: TRAIN }
#}
#layer {
#  name: "dc_relu258"
#  type: "ReLU"
#  bottom: "dc_ip258"
#  top: "dc_ip258"
#  include: { phase: TRAIN }
#}
#layer {
#  name: "dc_drop258"
#  type: "Dropout"
#  bottom: "dc_ip258"
#  top: "dc_ip258"
#  dropout_param {
#    dropout_ratio: 0.5
#  }
#  include: { phase: TRAIN }
#}
layer {
  name: "dc_ip358"
  type: "InnerProduct"
  bottom: "dc_ip158"
  top: "dc_ip358"
  param {
    lr_mult: 10
  }
  param {
    lr_mult: 20
  }
  inner_product_param {
    num_output: 1
    weight_filler {
      type: "gaussian"
      std: 0.3
    }
    bias_filler {
      type: "constant"
    }
  }
  include: { phase: TRAIN }
}
layer {
  name: "dc_loss58"
  type: "SigmoidCrossEntropyLoss"
  bottom: "dc_ip358"
  bottom: "dc_labels"
  bottom: "weight58"
  top: "dc_loss58"
  loss_weight: 0.1
  include: { phase: TRAIN }
}
layer {
  name: "dc_ip159"
  type: "InnerProduct"
  bottom: "grl59"
  top: "dc_ip159"
  param {
    #name: "ip1_1"
    lr_mult: 10
  }
  param {
    #name: "ip1_2"
    lr_mult: 20
  }
  inner_product_param {
    num_output: 256
    weight_filler {
      type: "gaussian"
      std: 0.01
    }
    bias_filler {
      type: "constant"
    }
  }
  include: { phase: TRAIN }
}
layer {
  name: "dc_relu159"
  type: "ReLU"
  bottom: "dc_ip159"
  top: "dc_ip159"
  include: { phase: TRAIN }
}
layer {
  name: "dc_drop159"
  type: "Dropout"
  bottom: "dc_ip159"
  top: "dc_ip159"
  dropout_param {
    dropout_ratio: 0.5
  }
  include: { phase: TRAIN }
}
#layer {
#  name: "dc_ip259"
#  type: "InnerProduct"
#  bottom: "dc_ip159"
#  top: "dc_ip259"
#  param {
#    #name: "ip2_1"
#    lr_mult: 10
#  }
#  param {
#    #name: "ip2_2"
#    lr_mult: 20
#  }
#  inner_product_param {
#    num_output: 1024
#    weight_filler {
#      type: "gaussian"
#      std: 0.01
#    }
#    bias_filler {
#      type: "constant"
#    }
#  }
#  include: { phase: TRAIN }
#}
#layer {
#  name: "dc_relu259"
#  type: "ReLU"
#  bottom: "dc_ip259"
#  top: "dc_ip259"
#  include: { phase: TRAIN }
#}
#layer {
#  name: "dc_drop259"
#  type: "Dropout"
#  bottom: "dc_ip259"
#  top: "dc_ip259"
#  dropout_param {
#    dropout_ratio: 0.5
#  }
#  include: { phase: TRAIN }
#}
layer {
  name: "dc_ip359"
  type: "InnerProduct"
  bottom: "dc_ip159"
  top: "dc_ip359"
  param {
    lr_mult: 10
  }
  param {
    lr_mult: 20
  }
  inner_product_param {
    num_output: 1
    weight_filler {
      type: "gaussian"
      std: 0.3
    }
    bias_filler {
      type: "constant"
    }
  }
  include: { phase: TRAIN }
}
layer {
  name: "dc_loss59"
  type: "SigmoidCrossEntropyLoss"
  bottom: "dc_ip359"
  bottom: "dc_labels"
  bottom: "weight59"
  top: "dc_loss59"
  loss_weight: 0.1
  include: { phase: TRAIN }
}
layer {
  name: "dc_ip160"
  type: "InnerProduct"
  bottom: "grl60"
  top: "dc_ip160"
  param {
    #name: "ip1_1"
    lr_mult: 10
  }
  param {
    #name: "ip1_2"
    lr_mult: 20
  }
  inner_product_param {
    num_output: 256
    weight_filler {
      type: "gaussian"
      std: 0.01
    }
    bias_filler {
      type: "constant"
    }
  }
  include: { phase: TRAIN }
}
layer {
  name: "dc_relu160"
  type: "ReLU"
  bottom: "dc_ip160"
  top: "dc_ip160"
  include: { phase: TRAIN }
}
layer {
  name: "dc_drop160"
  type: "Dropout"
  bottom: "dc_ip160"
  top: "dc_ip160"
  dropout_param {
    dropout_ratio: 0.5
  }
  include: { phase: TRAIN }
}
#layer {
#  name: "dc_ip260"
#  type: "InnerProduct"
#  bottom: "dc_ip160"
#  top: "dc_ip260"
#  param {
#    #name: "ip2_1"
#    lr_mult: 10
#  }
#  param {
#    #name: "ip2_2"
#    lr_mult: 20
#  }
#  inner_product_param {
#    num_output: 1024
#    weight_filler {
#      type: "gaussian"
#      std: 0.01
#    }
#    bias_filler {
#      type: "constant"
#    }
#  }
#  include: { phase: TRAIN }
#}
#layer {
#  name: "dc_relu260"
#  type: "ReLU"
#  bottom: "dc_ip260"
#  top: "dc_ip260"
#  include: { phase: TRAIN }
#}
#layer {
#  name: "dc_drop260"
#  type: "Dropout"
#  bottom: "dc_ip260"
#  top: "dc_ip260"
#  dropout_param {
#    dropout_ratio: 0.5
#  }
#  include: { phase: TRAIN }
#}
layer {
  name: "dc_ip360"
  type: "InnerProduct"
  bottom: "dc_ip160"
  top: "dc_ip360"
  param {
    lr_mult: 10
  }
  param {
    lr_mult: 20
  }
  inner_product_param {
    num_output: 1
    weight_filler {
      type: "gaussian"
      std: 0.3
    }
    bias_filler {
      type: "constant"
    }
  }
  include: { phase: TRAIN }
}
layer {
  name: "dc_loss60"
  type: "SigmoidCrossEntropyLoss"
  bottom: "dc_ip360"
  bottom: "dc_labels"
  bottom: "weight60"
  top: "dc_loss60"
  loss_weight: 0.1
  include: { phase: TRAIN }
}
layer {
  name: "dc_ip161"
  type: "InnerProduct"
  bottom: "grl61"
  top: "dc_ip161"
  param {
    #name: "ip1_1"
    lr_mult: 10
  }
  param {
    #name: "ip1_2"
    lr_mult: 20
  }
  inner_product_param {
    num_output: 256
    weight_filler {
      type: "gaussian"
      std: 0.01
    }
    bias_filler {
      type: "constant"
    }
  }
  include: { phase: TRAIN }
}
layer {
  name: "dc_relu161"
  type: "ReLU"
  bottom: "dc_ip161"
  top: "dc_ip161"
  include: { phase: TRAIN }
}
layer {
  name: "dc_drop161"
  type: "Dropout"
  bottom: "dc_ip161"
  top: "dc_ip161"
  dropout_param {
    dropout_ratio: 0.5
  }
  include: { phase: TRAIN }
}
#layer {
#  name: "dc_ip261"
#  type: "InnerProduct"
#  bottom: "dc_ip161"
#  top: "dc_ip261"
#  param {
#    #name: "ip2_1"
#    lr_mult: 10
#  }
#  param {
#    #name: "ip2_2"
#    lr_mult: 20
#  }
#  inner_product_param {
#    num_output: 1024
#    weight_filler {
#      type: "gaussian"
#      std: 0.01
#    }
#    bias_filler {
#      type: "constant"
#    }
#  }
#  include: { phase: TRAIN }
#}
#layer {
#  name: "dc_relu261"
#  type: "ReLU"
#  bottom: "dc_ip261"
#  top: "dc_ip261"
#  include: { phase: TRAIN }
#}
#layer {
#  name: "dc_drop261"
#  type: "Dropout"
#  bottom: "dc_ip261"
#  top: "dc_ip261"
#  dropout_param {
#    dropout_ratio: 0.5
#  }
#  include: { phase: TRAIN }
#}
layer {
  name: "dc_ip361"
  type: "InnerProduct"
  bottom: "dc_ip161"
  top: "dc_ip361"
  param {
    lr_mult: 10
  }
  param {
    lr_mult: 20
  }
  inner_product_param {
    num_output: 1
    weight_filler {
      type: "gaussian"
      std: 0.3
    }
    bias_filler {
      type: "constant"
    }
  }
  include: { phase: TRAIN }
}
layer {
  name: "dc_loss61"
  type: "SigmoidCrossEntropyLoss"
  bottom: "dc_ip361"
  bottom: "dc_labels"
  bottom: "weight61"
  top: "dc_loss61"
  loss_weight: 0.1
  include: { phase: TRAIN }
}
layer {
  name: "dc_ip162"
  type: "InnerProduct"
  bottom: "grl62"
  top: "dc_ip162"
  param {
    #name: "ip1_1"
    lr_mult: 10
  }
  param {
    #name: "ip1_2"
    lr_mult: 20
  }
  inner_product_param {
    num_output: 256
    weight_filler {
      type: "gaussian"
      std: 0.01
    }
    bias_filler {
      type: "constant"
    }
  }
  include: { phase: TRAIN }
}
layer {
  name: "dc_relu162"
  type: "ReLU"
  bottom: "dc_ip162"
  top: "dc_ip162"
  include: { phase: TRAIN }
}
layer {
  name: "dc_drop162"
  type: "Dropout"
  bottom: "dc_ip162"
  top: "dc_ip162"
  dropout_param {
    dropout_ratio: 0.5
  }
  include: { phase: TRAIN }
}
#layer {
#  name: "dc_ip262"
#  type: "InnerProduct"
#  bottom: "dc_ip162"
#  top: "dc_ip262"
#  param {
#    #name: "ip2_1"
#    lr_mult: 10
#  }
#  param {
#    #name: "ip2_2"
#    lr_mult: 20
#  }
#  inner_product_param {
#    num_output: 1024
#    weight_filler {
#      type: "gaussian"
#      std: 0.01
#    }
#    bias_filler {
#      type: "constant"
#    }
#  }
#  include: { phase: TRAIN }
#}
#layer {
#  name: "dc_relu262"
#  type: "ReLU"
#  bottom: "dc_ip262"
#  top: "dc_ip262"
#  include: { phase: TRAIN }
#}
#layer {
#  name: "dc_drop262"
#  type: "Dropout"
#  bottom: "dc_ip262"
#  top: "dc_ip262"
#  dropout_param {
#    dropout_ratio: 0.5
#  }
#  include: { phase: TRAIN }
#}
layer {
  name: "dc_ip362"
  type: "InnerProduct"
  bottom: "dc_ip162"
  top: "dc_ip362"
  param {
    lr_mult: 10
  }
  param {
    lr_mult: 20
  }
  inner_product_param {
    num_output: 1
    weight_filler {
      type: "gaussian"
      std: 0.3
    }
    bias_filler {
      type: "constant"
    }
  }
  include: { phase: TRAIN }
}
layer {
  name: "dc_loss62"
  type: "SigmoidCrossEntropyLoss"
  bottom: "dc_ip362"
  bottom: "dc_labels"
  bottom: "weight62"
  top: "dc_loss62"
  loss_weight: 0.1
  include: { phase: TRAIN }
}
layer {
  name: "dc_ip163"
  type: "InnerProduct"
  bottom: "grl63"
  top: "dc_ip163"
  param {
    #name: "ip1_1"
    lr_mult: 10
  }
  param {
    #name: "ip1_2"
    lr_mult: 20
  }
  inner_product_param {
    num_output: 256
    weight_filler {
      type: "gaussian"
      std: 0.01
    }
    bias_filler {
      type: "constant"
    }
  }
  include: { phase: TRAIN }
}
layer {
  name: "dc_relu163"
  type: "ReLU"
  bottom: "dc_ip163"
  top: "dc_ip163"
  include: { phase: TRAIN }
}
layer {
  name: "dc_drop163"
  type: "Dropout"
  bottom: "dc_ip163"
  top: "dc_ip163"
  dropout_param {
    dropout_ratio: 0.5
  }
  include: { phase: TRAIN }
}
#layer {
#  name: "dc_ip263"
#  type: "InnerProduct"
#  bottom: "dc_ip163"
#  top: "dc_ip263"
#  param {
#    #name: "ip2_1"
#    lr_mult: 10
#  }
#  param {
#    #name: "ip2_2"
#    lr_mult: 20
#  }
#  inner_product_param {
#    num_output: 1024
#    weight_filler {
#      type: "gaussian"
#      std: 0.01
#    }
#    bias_filler {
#      type: "constant"
#    }
#  }
#  include: { phase: TRAIN }
#}
#layer {
#  name: "dc_relu263"
#  type: "ReLU"
#  bottom: "dc_ip263"
#  top: "dc_ip263"
#  include: { phase: TRAIN }
#}
#layer {
#  name: "dc_drop263"
#  type: "Dropout"
#  bottom: "dc_ip263"
#  top: "dc_ip263"
#  dropout_param {
#    dropout_ratio: 0.5
#  }
#  include: { phase: TRAIN }
#}
layer {
  name: "dc_ip363"
  type: "InnerProduct"
  bottom: "dc_ip163"
  top: "dc_ip363"
  param {
    lr_mult: 10
  }
  param {
    lr_mult: 20
  }
  inner_product_param {
    num_output: 1
    weight_filler {
      type: "gaussian"
      std: 0.3
    }
    bias_filler {
      type: "constant"
    }
  }
  include: { phase: TRAIN }
}
layer {
  name: "dc_loss63"
  type: "SigmoidCrossEntropyLoss"
  bottom: "dc_ip363"
  bottom: "dc_labels"
  bottom: "weight63"
  top: "dc_loss63"
  loss_weight: 0.1
  include: { phase: TRAIN }
}
layer {
  name: "dc_ip164"
  type: "InnerProduct"
  bottom: "grl64"
  top: "dc_ip164"
  param {
    #name: "ip1_1"
    lr_mult: 10
  }
  param {
    #name: "ip1_2"
    lr_mult: 20
  }
  inner_product_param {
    num_output: 256
    weight_filler {
      type: "gaussian"
      std: 0.01
    }
    bias_filler {
      type: "constant"
    }
  }
  include: { phase: TRAIN }
}
layer {
  name: "dc_relu164"
  type: "ReLU"
  bottom: "dc_ip164"
  top: "dc_ip164"
  include: { phase: TRAIN }
}
layer {
  name: "dc_drop164"
  type: "Dropout"
  bottom: "dc_ip164"
  top: "dc_ip164"
  dropout_param {
    dropout_ratio: 0.5
  }
  include: { phase: TRAIN }
}
#layer {
#  name: "dc_ip264"
#  type: "InnerProduct"
#  bottom: "dc_ip164"
#  top: "dc_ip264"
#  param {
#    #name: "ip2_1"
#    lr_mult: 10
#  }
#  param {
#    #name: "ip2_2"
#    lr_mult: 20
#  }
#  inner_product_param {
#    num_output: 1024
#    weight_filler {
#      type: "gaussian"
#      std: 0.01
#    }
#    bias_filler {
#      type: "constant"
#    }
#  }
#  include: { phase: TRAIN }
#}
#layer {
#  name: "dc_relu264"
#  type: "ReLU"
#  bottom: "dc_ip264"
#  top: "dc_ip264"
#  include: { phase: TRAIN }
#}
#layer {
#  name: "dc_drop264"
#  type: "Dropout"
#  bottom: "dc_ip264"
#  top: "dc_ip264"
#  dropout_param {
#    dropout_ratio: 0.5
#  }
#  include: { phase: TRAIN }
#}
layer {
  name: "dc_ip364"
  type: "InnerProduct"
  bottom: "dc_ip164"
  top: "dc_ip364"
  param {
    lr_mult: 10
  }
  param {
    lr_mult: 20
  }
  inner_product_param {
    num_output: 1
    weight_filler {
      type: "gaussian"
      std: 0.3
    }
    bias_filler {
      type: "constant"
    }
  }
  include: { phase: TRAIN }
}
layer {
  name: "dc_loss64"
  type: "SigmoidCrossEntropyLoss"
  bottom: "dc_ip364"
  bottom: "dc_labels"
  bottom: "weight64"
  top: "dc_loss64"
  loss_weight: 0.1
  include: { phase: TRAIN }
}
layer {
  name: "dc_ip165"
  type: "InnerProduct"
  bottom: "grl65"
  top: "dc_ip165"
  param {
    #name: "ip1_1"
    lr_mult: 10
  }
  param {
    #name: "ip1_2"
    lr_mult: 20
  }
  inner_product_param {
    num_output: 256
    weight_filler {
      type: "gaussian"
      std: 0.01
    }
    bias_filler {
      type: "constant"
    }
  }
  include: { phase: TRAIN }
}
layer {
  name: "dc_relu165"
  type: "ReLU"
  bottom: "dc_ip165"
  top: "dc_ip165"
  include: { phase: TRAIN }
}
layer {
  name: "dc_drop165"
  type: "Dropout"
  bottom: "dc_ip165"
  top: "dc_ip165"
  dropout_param {
    dropout_ratio: 0.5
  }
  include: { phase: TRAIN }
}
#layer {
#  name: "dc_ip265"
#  type: "InnerProduct"
#  bottom: "dc_ip165"
#  top: "dc_ip265"
#  param {
#    #name: "ip2_1"
#    lr_mult: 10
#  }
#  param {
#    #name: "ip2_2"
#    lr_mult: 20
#  }
#  inner_product_param {
#    num_output: 1024
#    weight_filler {
#      type: "gaussian"
#      std: 0.01
#    }
#    bias_filler {
#      type: "constant"
#    }
#  }
#  include: { phase: TRAIN }
#}
#layer {
#  name: "dc_relu265"
#  type: "ReLU"
#  bottom: "dc_ip265"
#  top: "dc_ip265"
#  include: { phase: TRAIN }
#}
#layer {
#  name: "dc_drop265"
#  type: "Dropout"
#  bottom: "dc_ip265"
#  top: "dc_ip265"
#  dropout_param {
#    dropout_ratio: 0.5
#  }
#  include: { phase: TRAIN }
#}
layer {
  name: "dc_ip365"
  type: "InnerProduct"
  bottom: "dc_ip165"
  top: "dc_ip365"
  param {
    lr_mult: 10
  }
  param {
    lr_mult: 20
  }
  inner_product_param {
    num_output: 1
    weight_filler {
      type: "gaussian"
      std: 0.3
    }
    bias_filler {
      type: "constant"
    }
  }
  include: { phase: TRAIN }
}
layer {
  name: "dc_loss65"
  type: "SigmoidCrossEntropyLoss"
  bottom: "dc_ip365"
  bottom: "dc_labels"
  bottom: "weight65"
  top: "dc_loss65"
  loss_weight: 0.1
  include: { phase: TRAIN }
}
layer {
  name: "dc_ip166"
  type: "InnerProduct"
  bottom: "grl66"
  top: "dc_ip166"
  param {
    #name: "ip1_1"
    lr_mult: 10
  }
  param {
    #name: "ip1_2"
    lr_mult: 20
  }
  inner_product_param {
    num_output: 256
    weight_filler {
      type: "gaussian"
      std: 0.01
    }
    bias_filler {
      type: "constant"
    }
  }
  include: { phase: TRAIN }
}
layer {
  name: "dc_relu166"
  type: "ReLU"
  bottom: "dc_ip166"
  top: "dc_ip166"
  include: { phase: TRAIN }
}
layer {
  name: "dc_drop166"
  type: "Dropout"
  bottom: "dc_ip166"
  top: "dc_ip166"
  dropout_param {
    dropout_ratio: 0.5
  }
  include: { phase: TRAIN }
}
#layer {
#  name: "dc_ip266"
#  type: "InnerProduct"
#  bottom: "dc_ip166"
#  top: "dc_ip266"
#  param {
#    #name: "ip2_1"
#    lr_mult: 10
#  }
#  param {
#    #name: "ip2_2"
#    lr_mult: 20
#  }
#  inner_product_param {
#    num_output: 1024
#    weight_filler {
#      type: "gaussian"
#      std: 0.01
#    }
#    bias_filler {
#      type: "constant"
#    }
#  }
#  include: { phase: TRAIN }
#}
#layer {
#  name: "dc_relu266"
#  type: "ReLU"
#  bottom: "dc_ip266"
#  top: "dc_ip266"
#  include: { phase: TRAIN }
#}
#layer {
#  name: "dc_drop266"
#  type: "Dropout"
#  bottom: "dc_ip266"
#  top: "dc_ip266"
#  dropout_param {
#    dropout_ratio: 0.5
#  }
#  include: { phase: TRAIN }
#}
layer {
  name: "dc_ip366"
  type: "InnerProduct"
  bottom: "dc_ip166"
  top: "dc_ip366"
  param {
    lr_mult: 10
  }
  param {
    lr_mult: 20
  }
  inner_product_param {
    num_output: 1
    weight_filler {
      type: "gaussian"
      std: 0.3
    }
    bias_filler {
      type: "constant"
    }
  }
  include: { phase: TRAIN }
}
layer {
  name: "dc_loss66"
  type: "SigmoidCrossEntropyLoss"
  bottom: "dc_ip366"
  bottom: "dc_labels"
  bottom: "weight66"
  top: "dc_loss66"
  loss_weight: 0.1
  include: { phase: TRAIN }
}
layer {
  name: "dc_ip167"
  type: "InnerProduct"
  bottom: "grl67"
  top: "dc_ip167"
  param {
    #name: "ip1_1"
    lr_mult: 10
  }
  param {
    #name: "ip1_2"
    lr_mult: 20
  }
  inner_product_param {
    num_output: 256
    weight_filler {
      type: "gaussian"
      std: 0.01
    }
    bias_filler {
      type: "constant"
    }
  }
  include: { phase: TRAIN }
}
layer {
  name: "dc_relu167"
  type: "ReLU"
  bottom: "dc_ip167"
  top: "dc_ip167"
  include: { phase: TRAIN }
}
layer {
  name: "dc_drop167"
  type: "Dropout"
  bottom: "dc_ip167"
  top: "dc_ip167"
  dropout_param {
    dropout_ratio: 0.5
  }
  include: { phase: TRAIN }
}
#layer {
#  name: "dc_ip267"
#  type: "InnerProduct"
#  bottom: "dc_ip167"
#  top: "dc_ip267"
#  param {
#    #name: "ip2_1"
#    lr_mult: 10
#  }
#  param {
#    #name: "ip2_2"
#    lr_mult: 20
#  }
#  inner_product_param {
#    num_output: 1024
#    weight_filler {
#      type: "gaussian"
#      std: 0.01
#    }
#    bias_filler {
#      type: "constant"
#    }
#  }
#  include: { phase: TRAIN }
#}
#layer {
#  name: "dc_relu267"
#  type: "ReLU"
#  bottom: "dc_ip267"
#  top: "dc_ip267"
#  include: { phase: TRAIN }
#}
#layer {
#  name: "dc_drop267"
#  type: "Dropout"
#  bottom: "dc_ip267"
#  top: "dc_ip267"
#  dropout_param {
#    dropout_ratio: 0.5
#  }
#  include: { phase: TRAIN }
#}
layer {
  name: "dc_ip367"
  type: "InnerProduct"
  bottom: "dc_ip167"
  top: "dc_ip367"
  param {
    lr_mult: 10
  }
  param {
    lr_mult: 20
  }
  inner_product_param {
    num_output: 1
    weight_filler {
      type: "gaussian"
      std: 0.3
    }
    bias_filler {
      type: "constant"
    }
  }
  include: { phase: TRAIN }
}
layer {
  name: "dc_loss67"
  type: "SigmoidCrossEntropyLoss"
  bottom: "dc_ip367"
  bottom: "dc_labels"
  bottom: "weight67"
  top: "dc_loss67"
  loss_weight: 0.1
  include: { phase: TRAIN }
}
layer {
  name: "dc_ip168"
  type: "InnerProduct"
  bottom: "grl68"
  top: "dc_ip168"
  param {
    #name: "ip1_1"
    lr_mult: 10
  }
  param {
    #name: "ip1_2"
    lr_mult: 20
  }
  inner_product_param {
    num_output: 256
    weight_filler {
      type: "gaussian"
      std: 0.01
    }
    bias_filler {
      type: "constant"
    }
  }
  include: { phase: TRAIN }
}
layer {
  name: "dc_relu168"
  type: "ReLU"
  bottom: "dc_ip168"
  top: "dc_ip168"
  include: { phase: TRAIN }
}
layer {
  name: "dc_drop168"
  type: "Dropout"
  bottom: "dc_ip168"
  top: "dc_ip168"
  dropout_param {
    dropout_ratio: 0.5
  }
  include: { phase: TRAIN }
}
#layer {
#  name: "dc_ip268"
#  type: "InnerProduct"
#  bottom: "dc_ip168"
#  top: "dc_ip268"
#  param {
#    #name: "ip2_1"
#    lr_mult: 10
#  }
#  param {
#    #name: "ip2_2"
#    lr_mult: 20
#  }
#  inner_product_param {
#    num_output: 1024
#    weight_filler {
#      type: "gaussian"
#      std: 0.01
#    }
#    bias_filler {
#      type: "constant"
#    }
#  }
#  include: { phase: TRAIN }
#}
#layer {
#  name: "dc_relu268"
#  type: "ReLU"
#  bottom: "dc_ip268"
#  top: "dc_ip268"
#  include: { phase: TRAIN }
#}
#layer {
#  name: "dc_drop268"
#  type: "Dropout"
#  bottom: "dc_ip268"
#  top: "dc_ip268"
#  dropout_param {
#    dropout_ratio: 0.5
#  }
#  include: { phase: TRAIN }
#}
layer {
  name: "dc_ip368"
  type: "InnerProduct"
  bottom: "dc_ip168"
  top: "dc_ip368"
  param {
    lr_mult: 10
  }
  param {
    lr_mult: 20
  }
  inner_product_param {
    num_output: 1
    weight_filler {
      type: "gaussian"
      std: 0.3
    }
    bias_filler {
      type: "constant"
    }
  }
  include: { phase: TRAIN }
}
layer {
  name: "dc_loss68"
  type: "SigmoidCrossEntropyLoss"
  bottom: "dc_ip368"
  bottom: "dc_labels"
  bottom: "weight68"
  top: "dc_loss68"
  loss_weight: 0.1
  include: { phase: TRAIN }
}
layer {
  name: "dc_ip169"
  type: "InnerProduct"
  bottom: "grl69"
  top: "dc_ip169"
  param {
    #name: "ip1_1"
    lr_mult: 10
  }
  param {
    #name: "ip1_2"
    lr_mult: 20
  }
  inner_product_param {
    num_output: 256
    weight_filler {
      type: "gaussian"
      std: 0.01
    }
    bias_filler {
      type: "constant"
    }
  }
  include: { phase: TRAIN }
}
layer {
  name: "dc_relu169"
  type: "ReLU"
  bottom: "dc_ip169"
  top: "dc_ip169"
  include: { phase: TRAIN }
}
layer {
  name: "dc_drop169"
  type: "Dropout"
  bottom: "dc_ip169"
  top: "dc_ip169"
  dropout_param {
    dropout_ratio: 0.5
  }
  include: { phase: TRAIN }
}
#layer {
#  name: "dc_ip269"
#  type: "InnerProduct"
#  bottom: "dc_ip169"
#  top: "dc_ip269"
#  param {
#    #name: "ip2_1"
#    lr_mult: 10
#  }
#  param {
#    #name: "ip2_2"
#    lr_mult: 20
#  }
#  inner_product_param {
#    num_output: 1024
#    weight_filler {
#      type: "gaussian"
#      std: 0.01
#    }
#    bias_filler {
#      type: "constant"
#    }
#  }
#  include: { phase: TRAIN }
#}
#layer {
#  name: "dc_relu269"
#  type: "ReLU"
#  bottom: "dc_ip269"
#  top: "dc_ip269"
#  include: { phase: TRAIN }
#}
#layer {
#  name: "dc_drop269"
#  type: "Dropout"
#  bottom: "dc_ip269"
#  top: "dc_ip269"
#  dropout_param {
#    dropout_ratio: 0.5
#  }
#  include: { phase: TRAIN }
#}
layer {
  name: "dc_ip369"
  type: "InnerProduct"
  bottom: "dc_ip169"
  top: "dc_ip369"
  param {
    lr_mult: 10
  }
  param {
    lr_mult: 20
  }
  inner_product_param {
    num_output: 1
    weight_filler {
      type: "gaussian"
      std: 0.3
    }
    bias_filler {
      type: "constant"
    }
  }
  include: { phase: TRAIN }
}
layer {
  name: "dc_loss69"
  type: "SigmoidCrossEntropyLoss"
  bottom: "dc_ip369"
  bottom: "dc_labels"
  bottom: "weight69"
  top: "dc_loss69"
  loss_weight: 0.1
  include: { phase: TRAIN }
}
layer {
  name: "dc_ip170"
  type: "InnerProduct"
  bottom: "grl70"
  top: "dc_ip170"
  param {
    #name: "ip1_1"
    lr_mult: 10
  }
  param {
    #name: "ip1_2"
    lr_mult: 20
  }
  inner_product_param {
    num_output: 256
    weight_filler {
      type: "gaussian"
      std: 0.01
    }
    bias_filler {
      type: "constant"
    }
  }
  include: { phase: TRAIN }
}
layer {
  name: "dc_relu170"
  type: "ReLU"
  bottom: "dc_ip170"
  top: "dc_ip170"
  include: { phase: TRAIN }
}
layer {
  name: "dc_drop170"
  type: "Dropout"
  bottom: "dc_ip170"
  top: "dc_ip170"
  dropout_param {
    dropout_ratio: 0.5
  }
  include: { phase: TRAIN }
}
#layer {
#  name: "dc_ip270"
#  type: "InnerProduct"
#  bottom: "dc_ip170"
#  top: "dc_ip270"
#  param {
#    #name: "ip2_1"
#    lr_mult: 10
#  }
#  param {
#    #name: "ip2_2"
#    lr_mult: 20
#  }
…
#  type: "Dropout"
#  bottom: "dc_ip2229"
#  top: "dc_ip2229"
#  dropout_param {
#    dropout_ratio: 0.5
#  }
#  include: { phase: TRAIN }
#}
layer {
  name: "dc_ip3229"
  type: "InnerProduct"
  bottom: "dc_ip1229"
  top: "dc_ip3229"
  param {
    lr_mult: 10
  }
  param {
    lr_mult: 20
  }
  inner_product_param {
    num_output: 1
    weight_filler {
      type: "gaussian"
      std: 0.3
    }
    bias_filler {
      type: "constant"
    }
  }
  include: { phase: TRAIN }
}
layer {
  name: "dc_loss229"
  type: "SigmoidCrossEntropyLoss"
  bottom: "dc_ip3229"
  bottom: "dc_labels"
  bottom: "weight229"
  top: "dc_loss229"
  loss_weight: 0.1
  include: { phase: TRAIN }
}
layer {
  name: "dc_ip1230"
  type: "InnerProduct"
  bottom: "grl230"
  top: "dc_ip1230"
  param {
    #name: "ip1_1"
    lr_mult: 10
  }
  param {
    #name: "ip1_2"
    lr_mult: 20
  }
  inner_product_param {
    num_output: 256
    weight_filler {
      type: "gaussian"
      std: 0.01
    }
    bias_filler {
      type: "constant"
    }
  }
  include: { phase: TRAIN }
}
layer {
  name: "dc_relu1230"
  type: "ReLU"
  bottom: "dc_ip1230"
  top: "dc_ip1230"
  include: { phase: TRAIN }
}
layer {
  name: "dc_drop1230"
  type: "Dropout"
  bottom: "dc_ip1230"
  top: "dc_ip1230"
  dropout_param {
    dropout_ratio: 0.5
  }
  include: { phase: TRAIN }
}
#layer {
#  name: "dc_ip2230"
#  type: "InnerProduct"
#  bottom: "dc_ip1230"
#  top: "dc_ip2230"
#  param {
#    #name: "ip2_1"
#    lr_mult: 10
#  }
#  param {
#    #name: "ip2_2"
#    lr_mult: 20
#  }
#  inner_product_param {
#    num_output: 1024
#    weight_filler {
#      type: "gaussian"
#      std: 0.01
#    }
#    bias_filler {
#      type: "constant"
#    }
#  }
#  include: { phase: TRAIN }
#}
#layer {
#  name: "dc_relu2230"
#  type: "ReLU"
#  bottom: "dc_ip2230"
#  top: "dc_ip2230"
#  include: { phase: TRAIN }
#}
#layer {
#  name: "dc_drop2230"
#  type: "Dropout"
#  bottom: "dc_ip2230"
#  top: "dc_ip2230"
#  dropout_param {
#    dropout_ratio: 0.5
#  }
#  include: { phase: TRAIN }
#}
layer {
  name: "dc_ip3230"
  type: "InnerProduct"
  bottom: "dc_ip1230"
  top: "dc_ip3230"
  param {
    lr_mult: 10
  }
  param {
    lr_mult: 20
  }
  inner_product_param {
    num_output: 1
    weight_filler {
      type: "gaussian"
      std: 0.3
    }
    bias_filler {
      type: "constant"
    }
  }
  include: { phase: TRAIN }
}
layer {
  name: "dc_loss230"
  type: "SigmoidCrossEntropyLoss"
  bottom: "dc_ip3230"
  bottom: "dc_labels"
  bottom: "weight230"
  top: "dc_loss230"
  loss_weight: 0.1
  include: { phase: TRAIN }
}
layer {
  name: "dc_ip1231"
  type: "InnerProduct"
  bottom: "grl231"
  top: "dc_ip1231"
  param {
    #name: "ip1_1"
    lr_mult: 10
  }
  param {
    #name: "ip1_2"
    lr_mult: 20
  }
  inner_product_param {
    num_output: 256
    weight_filler {
      type: "gaussian"
      std: 0.01
    }
    bias_filler {
      type: "constant"
    }
  }
  include: { phase: TRAIN }
}
layer {
  name: "dc_relu1231"
  type: "ReLU"
  bottom: "dc_ip1231"
  top: "dc_ip1231"
  include: { phase: TRAIN }
}
layer {
  name: "dc_drop1231"
  type: "Dropout"
  bottom: "dc_ip1231"
  top: "dc_ip1231"
  dropout_param {
    dropout_ratio: 0.5
  }
  include: { phase: TRAIN }
}
#layer {
#  name: "dc_ip2231"
#  type: "InnerProduct"
#  bottom: "dc_ip1231"
#  top: "dc_ip2231"
#  param {
#    #name: "ip2_1"
#    lr_mult: 10
#  }
#  param {
#    #name: "ip2_2"
#    lr_mult: 20
#  }
#  inner_product_param {
#    num_output: 1024
#    weight_filler {
#      type: "gaussian"
#      std: 0.01
#    }
#    bias_filler {
#      type: "constant"
#    }
#  }
#  include: { phase: TRAIN }
#}
#layer {
#  name: "dc_relu2231"
#  type: "ReLU"
#  bottom: "dc_ip2231"
#  top: "dc_ip2231"
#  include: { phase: TRAIN }
#}
#layer {
#  name: "dc_drop2231"
#  type: "Dropout"
#  bottom: "dc_ip2231"
#  top: "dc_ip2231"
#  dropout_param {
#    dropout_ratio: 0.5
#  }
#  include: { phase: TRAIN }
#}
layer {
  name: "dc_ip3231"
  type: "InnerProduct"
  bottom: "dc_ip1231"
  top: "dc_ip3231"
  param {
    lr_mult: 10
  }
  param {
    lr_mult: 20
  }
  inner_product_param {
    num_output: 1
    weight_filler {
      type: "gaussian"
      std: 0.3
    }
    bias_filler {
      type: "constant"
    }
  }
  include: { phase: TRAIN }
}
layer {
  name: "dc_loss231"
  type: "SigmoidCrossEntropyLoss"
  bottom: "dc_ip3231"
  bottom: "dc_labels"
  bottom: "weight231"
  top: "dc_loss231"
  loss_weight: 0.1
  include: { phase: TRAIN }
}
layer {
  name: "dc_ip1232"
  type: "InnerProduct"
  bottom: "grl232"
  top: "dc_ip1232"
  param {
    #name: "ip1_1"
    lr_mult: 10
  }
  param {
    #name: "ip1_2"
    lr_mult: 20
  }
  inner_product_param {
    num_output: 256
    weight_filler {
      type: "gaussian"
      std: 0.01
    }
    bias_filler {
      type: "constant"
    }
  }
  include: { phase: TRAIN }
}
layer {
  name: "dc_relu1232"
  type: "ReLU"
  bottom: "dc_ip1232"
  top: "dc_ip1232"
  include: { phase: TRAIN }
}
layer {
  name: "dc_drop1232"
  type: "Dropout"
  bottom: "dc_ip1232"
  top: "dc_ip1232"
  dropout_param {
    dropout_ratio: 0.5
  }
  include: { phase: TRAIN }
}
#layer {
#  name: "dc_ip2232"
#  type: "InnerProduct"
#  bottom: "dc_ip1232"
#  top: "dc_ip2232"
#  param {
#    #name: "ip2_1"
#    lr_mult: 10
#  }
#  param {
#    #name: "ip2_2"
#    lr_mult: 20
#  }
#  inner_product_param {
#    num_output: 1024
#    weight_filler {
#      type: "gaussian"
#      std: 0.01
#    }
#    bias_filler {
#      type: "constant"
#    }
#  }
#  include: { phase: TRAIN }
#}
#layer {
#  name: "dc_relu2232"
#  type: "ReLU"
#  bottom: "dc_ip2232"
#  top: "dc_ip2232"
#  include: { phase: TRAIN }
#}
#layer {
#  name: "dc_drop2232"
#  type: "Dropout"
#  bottom: "dc_ip2232"
#  top: "dc_ip2232"
#  dropout_param {
#    dropout_ratio: 0.5
#  }
#  include: { phase: TRAIN }
#}
layer {
  name: "dc_ip3232"
  type: "InnerProduct"
  bottom: "dc_ip1232"
  top: "dc_ip3232"
  param {
    lr_mult: 10
  }
  param {
    lr_mult: 20
  }
  inner_product_param {
    num_output: 1
    weight_filler {
      type: "gaussian"
      std: 0.3
    }
    bias_filler {
      type: "constant"
    }
  }
  include: { phase: TRAIN }
}
layer {
  name: "dc_loss232"
  type: "SigmoidCrossEntropyLoss"
  bottom: "dc_ip3232"
  bottom: "dc_labels"
  bottom: "weight232"
  top: "dc_loss232"
  loss_weight: 0.1
  include: { phase: TRAIN }
}
layer {
  name: "dc_ip1233"
  type: "InnerProduct"
  bottom: "grl233"
  top: "dc_ip1233"
  param {
    #name: "ip1_1"
    lr_mult: 10
  }
  param {
    #name: "ip1_2"
    lr_mult: 20
  }
  inner_product_param {
    num_output: 256
    weight_filler {
      type: "gaussian"
      std: 0.01
    }
    bias_filler {
      type: "constant"
    }
  }
  include: { phase: TRAIN }
}
layer {
  name: "dc_relu1233"
  type: "ReLU"
  bottom: "dc_ip1233"
  top: "dc_ip1233"
  include: { phase: TRAIN }
}
layer {
  name: "dc_drop1233"
  type: "Dropout"
  bottom: "dc_ip1233"
  top: "dc_ip1233"
  dropout_param {
    dropout_ratio: 0.5
  }
  include: { phase: TRAIN }
}
#layer {
#  name: "dc_ip2233"
#  type: "InnerProduct"
#  bottom: "dc_ip1233"
#  top: "dc_ip2233"
#  param {
#    #name: "ip2_1"
#    lr_mult: 10
#  }
#  param {
#    #name: "ip2_2"
#    lr_mult: 20
#  }
#  inner_product_param {
#    num_output: 1024
#    weight_filler {
#      type: "gaussian"
#      std: 0.01
#    }
#    bias_filler {
#      type: "constant"
#    }
#  }
#  include: { phase: TRAIN }
#}
#layer {
#  name: "dc_relu2233"
#  type: "ReLU"
#  bottom: "dc_ip2233"
#  top: "dc_ip2233"
#  include: { phase: TRAIN }
#}
#layer {
#  name: "dc_drop2233"
#  type: "Dropout"
#  bottom: "dc_ip2233"
#  top: "dc_ip2233"
#  dropout_param {
#    dropout_ratio: 0.5
#  }
#  include: { phase: TRAIN }
#}
layer {
  name: "dc_ip3233"
  type: "InnerProduct"
  bottom: "dc_ip1233"
  top: "dc_ip3233"
  param {
    lr_mult: 10
  }
  param {
    lr_mult: 20
  }
  inner_product_param {
    num_output: 1
    weight_filler {
      type: "gaussian"
      std: 0.3
    }
    bias_filler {
      type: "constant"
    }
  }
  include: { phase: TRAIN }
}
layer {
  name: "dc_loss233"
  type: "SigmoidCrossEntropyLoss"
  bottom: "dc_ip3233"
  bottom: "dc_labels"
  bottom: "weight233"
  top: "dc_loss233"
  loss_weight: 0.1
  include: { phase: TRAIN }
}
layer {
  name: "dc_ip1234"
  type: "InnerProduct"
  bottom: "grl234"
  top: "dc_ip1234"
  param {
    #name: "ip1_1"
    lr_mult: 10
  }
  param {
    #name: "ip1_2"
    lr_mult: 20
  }
  inner_product_param {
    num_output: 256
    weight_filler {
      type: "gaussian"
      std: 0.01
    }
    bias_filler {
      type: "constant"
    }
  }
  include: { phase: TRAIN }
}
layer {
  name: "dc_relu1234"
  type: "ReLU"
  bottom: "dc_ip1234"
  top: "dc_ip1234"
  include: { phase: TRAIN }
}
layer {
  name: "dc_drop1234"
  type: "Dropout"
  bottom: "dc_ip1234"
  top: "dc_ip1234"
  dropout_param {
    dropout_ratio: 0.5
  }
  include: { phase: TRAIN }
}
#layer {
#  name: "dc_ip2234"
#  type: "InnerProduct"
#  bottom: "dc_ip1234"
#  top: "dc_ip2234"
#  param {
#    #name: "ip2_1"
#    lr_mult: 10
#  }
#  param {
#    #name: "ip2_2"
#    lr_mult: 20
#  }
#  inner_product_param {
#    num_output: 1024
#    weight_filler {
#      type: "gaussian"
#      std: 0.01
#    }
#    bias_filler {
#      type: "constant"
#    }
#  }
#  include: { phase: TRAIN }
#}
#layer {
#  name: "dc_relu2234"
#  type: "ReLU"
#  bottom: "dc_ip2234"
#  top: "dc_ip2234"
#  include: { phase: TRAIN }
#}
#layer {
#  name: "dc_drop2234"
#  type: "Dropout"
#  bottom: "dc_ip2234"
#  top: "dc_ip2234"
#  dropout_param {
#    dropout_ratio: 0.5
#  }
#  include: { phase: TRAIN }
#}
layer {
  name: "dc_ip3234"
  type: "InnerProduct"
  bottom: "dc_ip1234"
  top: "dc_ip3234"
  param {
    lr_mult: 10
  }
  param {
    lr_mult: 20
  }
  inner_product_param {
    num_output: 1
    weight_filler {
      type: "gaussian"
      std: 0.3
    }
    bias_filler {
      type: "constant"
    }
  }
  include: { phase: TRAIN }
}
layer {
  name: "dc_loss234"
  type: "SigmoidCrossEntropyLoss"
  bottom: "dc_ip3234"
  bottom: "dc_labels"
  bottom: "weight234"
  top: "dc_loss234"
  loss_weight: 0.1
  include: { phase: TRAIN }
}
layer {
  name: "dc_ip1235"
  type: "InnerProduct"
  bottom: "grl235"
  top: "dc_ip1235"
  param {
    #name: "ip1_1"
    lr_mult: 10
  }
  param {
    #name: "ip1_2"
    lr_mult: 20
  }
  inner_product_param {
    num_output: 256
    weight_filler {
      type: "gaussian"
      std: 0.01
    }
    bias_filler {
      type: "constant"
    }
  }
  include: { phase: TRAIN }
}
layer {
  name: "dc_relu1235"
  type: "ReLU"
  bottom: "dc_ip1235"
  top: "dc_ip1235"
  include: { phase: TRAIN }
}
layer {
  name: "dc_drop1235"
  type: "Dropout"
  bottom: "dc_ip1235"
  top: "dc_ip1235"
  dropout_param {
    dropout_ratio: 0.5
  }
  include: { phase: TRAIN }
}
#layer {
#  name: "dc_ip2235"
#  type: "InnerProduct"
#  bottom: "dc_ip1235"
#  top: "dc_ip2235"
#  param {
#    #name: "ip2_1"
#    lr_mult: 10
#  }
#  param {
#    #name: "ip2_2"
#    lr_mult: 20
#  }
#  inner_product_param {
#    num_output: 1024
#    weight_filler {
#      type: "gaussian"
#      std: 0.01
#    }
#    bias_filler {
#      type: "constant"
#    }
#  }
#  include: { phase: TRAIN }
#}
#layer {
#  name: "dc_relu2235"
#  type: "ReLU"
#  bottom: "dc_ip2235"
#  top: "dc_ip2235"
#  include: { phase: TRAIN }
#}
#layer {
#  name: "dc_drop2235"
#  type: "Dropout"
#  bottom: "dc_ip2235"
#  top: "dc_ip2235"
#  dropout_param {
#    dropout_ratio: 0.5
#  }
#  include: { phase: TRAIN }
#}
layer {
  name: "dc_ip3235"
  type: "InnerProduct"
  bottom: "dc_ip1235"
  top: "dc_ip3235"
  param {
    lr_mult: 10
  }
  param {
    lr_mult: 20
  }
  inner_product_param {
    num_output: 1
    weight_filler {
      type: "gaussian"
      std: 0.3
    }
    bias_filler {
      type: "constant"
    }
  }
  include: { phase: TRAIN }
}
layer {
  name: "dc_loss235"
  type: "SigmoidCrossEntropyLoss"
  bottom: "dc_ip3235"
  bottom: "dc_labels"
  bottom: "weight235"
  top: "dc_loss235"
  loss_weight: 0.1
  include: { phase: TRAIN }
}
layer {
  name: "dc_ip1236"
  type: "InnerProduct"
  bottom: "grl236"
  top: "dc_ip1236"
  param {
    #name: "ip1_1"
    lr_mult: 10
  }
  param {
    #name: "ip1_2"
    lr_mult: 20
  }
  inner_product_param {
    num_output: 256
    weight_filler {
      type: "gaussian"
      std: 0.01
    }
    bias_filler {
      type: "constant"
    }
  }
  include: { phase: TRAIN }
}
layer {
  name: "dc_relu1236"
  type: "ReLU"
  bottom: "dc_ip1236"
  top: "dc_ip1236"
  include: { phase: TRAIN }
}
layer {
  name: "dc_drop1236"
  type: "Dropout"
  bottom: "dc_ip1236"
  top: "dc_ip1236"
  dropout_param {
    dropout_ratio: 0.5
  }
  include: { phase: TRAIN }
}
#layer {
#  name: "dc_ip2236"
#  type: "InnerProduct"
#  bottom: "dc_ip1236"
#  top: "dc_ip2236"
#  param {
#    #name: "ip2_1"
#    lr_mult: 10
#  }
#  param {
#    #name: "ip2_2"
#    lr_mult: 20
#  }
#  inner_product_param {
#    num_output: 1024
#    weight_filler {
#      type: "gaussian"
#      std: 0.01
#    }
#    bias_filler {
#      type: "constant"
#    }
#  }
#  include: { phase: TRAIN }
#}
#layer {
#  name: "dc_relu2236"
#  type: "ReLU"
#  bottom: "dc_ip2236"
#  top: "dc_ip2236"
#  include: { phase: TRAIN }
#}
#layer {
#  name: "dc_drop2236"
#  type: "Dropout"
#  bottom: "dc_ip2236"
#  top: "dc_ip2236"
#  dropout_param {
#    dropout_ratio: 0.5
#  }
#  include: { phase: TRAIN }
#}
layer {
  name: "dc_ip3236"
  type: "InnerProduct"
  bottom: "dc_ip1236"
  top: "dc_ip3236"
  param {
    lr_mult: 10
  }
  param {
    lr_mult: 20
  }
  inner_product_param {
    num_output: 1
    weight_filler {
      type: "gaussian"
      std: 0.3
    }
    bias_filler {
      type: "constant"
    }
  }
  include: { phase: TRAIN }
}
layer {
  name: "dc_loss236"
  type: "SigmoidCrossEntropyLoss"
  bottom: "dc_ip3236"
  bottom: "dc_labels"
  bottom: "weight236"
  top: "dc_loss236"
  loss_weight: 0.1
  include: { phase: TRAIN }
}
layer {
  name: "dc_ip1237"
  type: "InnerProduct"
  bottom: "grl237"
  top: "dc_ip1237"
  param {
    #name: "ip1_1"
    lr_mult: 10
  }
  param {
    #name: "ip1_2"
    lr_mult: 20
  }
  inner_product_param {
    num_output: 256
    weight_filler {
      type: "gaussian"
      std: 0.01
    }
    bias_filler {
      type: "constant"
    }
  }
  include: { phase: TRAIN }
}
layer {
  name: "dc_relu1237"
  type: "ReLU"
  bottom: "dc_ip1237"
  top: "dc_ip1237"
  include: { phase: TRAIN }
}
layer {
  name: "dc_drop1237"
  type: "Dropout"
  bottom: "dc_ip1237"
  top: "dc_ip1237"
  dropout_param {
    dropout_ratio: 0.5
  }
  include: { phase: TRAIN }
}
#layer {
#  name: "dc_ip2237"
#  type: "InnerProduct"
#  bottom: "dc_ip1237"
#  top: "dc_ip2237"
#  param {
#    #name: "ip2_1"
#    lr_mult: 10
#  }
#  param {
#    #name: "ip2_2"
#    lr_mult: 20
#  }
#  inner_product_param {
#    num_output: 1024
#    weight_filler {
#      type: "gaussian"
#      std: 0.01
#    }
#    bias_filler {
#      type: "constant"
#    }
#  }
#  include: { phase: TRAIN }
#}
#layer {
#  name: "dc_relu2237"
#  type: "ReLU"
#  bottom: "dc_ip2237"
#  top: "dc_ip2237"
#  include: { phase: TRAIN }
#}
#layer {
#  name: "dc_drop2237"
#  type: "Dropout"
#  bottom: "dc_ip2237"
#  top: "dc_ip2237"
#  dropout_param {
#    dropout_ratio: 0.5
#  }
#  include: { phase: TRAIN }
#}
layer {
  name: "dc_ip3237"
  type: "InnerProduct"
  bottom: "dc_ip1237"
  top: "dc_ip3237"
  param {
    lr_mult: 10
  }
  param {
    lr_mult: 20
  }
  inner_product_param {
    num_output: 1
    weight_filler {
      type: "gaussian"
      std: 0.3
    }
    bias_filler {
      type: "constant"
    }
  }
  include: { phase: TRAIN }
}
layer {
  name: "dc_loss237"
  type: "SigmoidCrossEntropyLoss"
  bottom: "dc_ip3237"
  bottom: "dc_labels"
  bottom: "weight237"
  top: "dc_loss237"
  loss_weight: 0.1
  include: { phase: TRAIN }
}
layer {
  name: "dc_ip1238"
  type: "InnerProduct"
  bottom: "grl238"
  top: "dc_ip1238"
  param {
    #name: "ip1_1"
    lr_mult: 10
  }
  param {
    #name: "ip1_2"
    lr_mult: 20
  }
  inner_product_param {
    num_output: 256
    weight_filler {
      type: "gaussian"
      std: 0.01
    }
    bias_filler {
      type: "constant"
    }
  }
  include: { phase: TRAIN }
}
layer {
  name: "dc_relu1238"
  type: "ReLU"
  bottom: "dc_ip1238"
  top: "dc_ip1238"
  include: { phase: TRAIN }
}
layer {
  name: "dc_drop1238"
  type: "Dropout"
  bottom: "dc_ip1238"
  top: "dc_ip1238"
  dropout_param {
    dropout_ratio: 0.5
  }
  include: { phase: TRAIN }
}
#layer {
#  name: "dc_ip2238"
#  type: "InnerProduct"
#  bottom: "dc_ip1238"
#  top: "dc_ip2238"
#  param {
#    #name: "ip2_1"
#    lr_mult: 10
#  }
#  param {
#    #name: "ip2_2"
#    lr_mult: 20
#  }
#  inner_product_param {
#    num_output: 1024
#    weight_filler {
#      type: "gaussian"
#      std: 0.01
#    }
#    bias_filler {
#      type: "constant"
#    }
#  }
#  include: { phase: TRAIN }
#}
#layer {
#  name: "dc_relu2238"
#  type: "ReLU"
#  bottom: "dc_ip2238"
#  top: "dc_ip2238"
#  include: { phase: TRAIN }
#}
#layer {
#  name: "dc_drop2238"
#  type: "Dropout"
#  bottom: "dc_ip2238"
#  top: "dc_ip2238"
#  dropout_param {
#    dropout_ratio: 0.5
#  }
#  include: { phase: TRAIN }
#}
layer {
  name: "dc_ip3238"
  type: "InnerProduct"
  bottom: "dc_ip1238"
  top: "dc_ip3238"
  param {
    lr_mult: 10
  }
  param {
    lr_mult: 20
  }
  inner_product_param {
    num_output: 1
    weight_filler {
      type: "gaussian"
      std: 0.3
    }
    bias_filler {
      type: "constant"
    }
  }
  include: { phase: TRAIN }
}
layer {
  name: "dc_loss238"
  type: "SigmoidCrossEntropyLoss"
  bottom: "dc_ip3238"
  bottom: "dc_labels"
  bottom: "weight238"
  top: "dc_loss238"
  loss_weight: 0.1
  include: { phase: TRAIN }
}
layer {
  name: "dc_ip1239"
  type: "InnerProduct"
  bottom: "grl239"
  top: "dc_ip1239"
  param {
    #name: "ip1_1"
    lr_mult: 10
  }
  param {
    #name: "ip1_2"
    lr_mult: 20
  }
  inner_product_param {
    num_output: 256
    weight_filler {
      type: "gaussian"
      std: 0.01
    }
    bias_filler {
      type: "constant"
    }
  }
  include: { phase: TRAIN }
}
layer {
  name: "dc_relu1239"
  type: "ReLU"
  bottom: "dc_ip1239"
  top: "dc_ip1239"
  include: { phase: TRAIN }
}
layer {
  name: "dc_drop1239"
  type: "Dropout"
  bottom: "dc_ip1239"
  top: "dc_ip1239"
  dropout_param {
    dropout_ratio: 0.5
  }
  include: { phase: TRAIN }
}
#layer {
#  name: "dc_ip2239"
#  type: "InnerProduct"
#  bottom: "dc_ip1239"
#  top: "dc_ip2239"
#  param {
#    #name: "ip2_1"
#    lr_mult: 10
#  }
#  param {
#    #name: "ip2_2"
#    lr_mult: 20
#  }
#  inner_product_param {
#    num_output: 1024
#    weight_filler {
#      type: "gaussian"
#      std: 0.01
#    }
#    bias_filler {
#      type: "constant"
#    }
#  }
#  include: { phase: TRAIN }
#}
#layer {
#  name: "dc_relu2239"
#  type: "ReLU"
#  bottom: "dc_ip2239"
#  top: "dc_ip2239"
#  include: { phase: TRAIN }
#}
#layer {
#  name: "dc_drop2239"
#  type: "Dropout"
#  bottom: "dc_ip2239"
#  top: "dc_ip2239"
#  dropout_param {
#    dropout_ratio: 0.5
#  }
#  include: { phase: TRAIN }
#}
layer {
  name: "dc_ip3239"
  type: "InnerProduct"
  bottom: "dc_ip1239"
  top: "dc_ip3239"
  param {
    lr_mult: 10
  }
  param {
    lr_mult: 20
  }
  inner_product_param {
    num_output: 1
    weight_filler {
      type: "gaussian"
      std: 0.3
    }
    bias_filler {
      type: "constant"
    }
  }
  include: { phase: TRAIN }
}
layer {
  name: "dc_loss239"
  type: "SigmoidCrossEntropyLoss"
  bottom: "dc_ip3239"
  bottom: "dc_labels"
  bottom: "weight239"
  top: "dc_loss239"
  loss_weight: 0.1
  include: { phase: TRAIN }
}
layer {
  name: "dc_ip1240"
  type: "InnerProduct"
  bottom: "grl240"
  top: "dc_ip1240"
  param {
    #name: "ip1_1"
    lr_mult: 10
  }
  param {
    #name: "ip1_2"
    lr_mult: 20
  }
  inner_product_param {
    num_output: 256
    weight_filler {
      type: "gaussian"
      std: 0.01
    }
    bias_filler {
      type: "constant"
    }
  }
  include: { phase: TRAIN }
}
layer {
  name: "dc_relu1240"
  type: "ReLU"
  bottom: "dc_ip1240"
  top: "dc_ip1240"
  include: { phase: TRAIN }
}
layer {
  name: "dc_drop1240"
  type: "Dropout"
  bottom: "dc_ip1240"
  top: "dc_ip1240"
  dropout_param {
    dropout_ratio: 0.5
  }
  include: { phase: TRAIN }
}
#layer {
#  name: "dc_ip2240"
#  type: "InnerProduct"
#  bottom: "dc_ip1240"
#  top: "dc_ip2240"
#  param {
#    #name: "ip2_1"
#    lr_mult: 10
#  }
#  param {
#    #name: "ip2_2"
#    lr_mult: 20
#  }
#  inner_product_param {
#    num_output: 1024
#    weight_filler {
#      type: "gaussian"
#      std: 0.01
#    }
#    bias_filler {
#      type: "constant"
#    }
#  }
#  include: { phase: TRAIN }
#}
#layer {
#  name: "dc_relu2240"
#  type: "ReLU"
#  bottom: "dc_ip2240"
#  top: "dc_ip2240"
#  include: { phase: TRAIN }
#}
#layer {
#  name: "dc_drop2240"
#  type: "Dropout"
#  bottom: "dc_ip2240"
#  top: "dc_ip2240"
#  dropout_param {
#    dropout_ratio: 0.5
#  }
#  include: { phase: TRAIN }
#}
layer {
  name: "dc_ip3240"
  type: "InnerProduct"
  bottom: "dc_ip1240"
  top: "dc_ip3240"
  param {
    lr_mult: 10
  }
  param {
    lr_mult: 20
  }
  inner_product_param {
    num_output: 1
    weight_filler {
      type: "gaussian"
      std: 0.3
    }
    bias_filler {
      type: "constant"
    }
  }
  include: { phase: TRAIN }
}
layer {
  name: "dc_loss240"
  type: "SigmoidCrossEntropyLoss"
  bottom: "dc_ip3240"
  bottom: "dc_labels"
  bottom: "weight240"
  top: "dc_loss240"
  loss_weight: 0.1
  include: { phase: TRAIN }
}
layer {
  name: "dc_ip1241"
  type: "InnerProduct"
  bottom: "grl241"
  top: "dc_ip1241"
  param {
    #name: "ip1_1"
    lr_mult: 10
  }
  param {
    #name: "ip1_2"
    lr_mult: 20
  }
  inner_product_param {
    num_output: 256
    weight_filler {
      type: "gaussian"
      std: 0.01
    }
    bias_filler {
      type: "constant"
    }
  }
  include: { phase: TRAIN }
}
layer {
  name: "dc_relu1241"
  type: "ReLU"
  bottom: "dc_ip1241"
  top: "dc_ip1241"
  include: { phase: TRAIN }
}
layer {
  name: "dc_drop1241"
  type: "Dropout"
  bottom: "dc_ip1241"
  top: "dc_ip1241"
  dropout_param {
    dropout_ratio: 0.5
  }
  include: { phase: TRAIN }
}
#layer {
#  name: "dc_ip2241"
#  type: "InnerProduct"
#  bottom: "dc_ip1241"
#  top: "dc_ip2241"
#  param {
#    #name: "ip2_1"
#    lr_mult: 10
#  }
#  param {
#    #name: "ip2_2"
#    lr_mult: 20
#  }
#  inner_product_param {
#    num_output: 1024
#    weight_filler {
#      type: "gaussian"
#      std: 0.01
#    }
#    bias_filler {
#      type: "constant"
#    }
#  }
#  include: { phase: TRAIN }
#}
#layer {
#  name: "dc_relu2241"
#  type: "ReLU"
#  bottom: "dc_ip2241"
#  top: "dc_ip2241"
#  include: { phase: TRAIN }
#}
#layer {
#  name: "dc_drop2241"
#  type: "Dropout"
#  bottom: "dc_ip2241"
#  top: "dc_ip2241"
#  dropout_param {
#    dropout_ratio: 0.5
#  }
#  include: { phase: TRAIN }
#}
layer {
  name: "dc_ip3241"
  type: "InnerProduct"
  bottom: "dc_ip1241"
  top: "dc_ip3241"
  param {
    lr_mult: 10
  }
  param {
    lr_mult: 20
  }
  inner_product_param {
    num_output: 1
    weight_filler {
      type: "gaussian"
      std: 0.3
    }
    bias_filler {
      type: "constant"
    }
  }
  include: { phase: TRAIN }
}
layer {
  name: "dc_loss241"
  type: "SigmoidCrossEntropyLoss"
  bottom: "dc_ip3241"
  bottom: "dc_labels"
  bottom: "weight241"
  top: "dc_loss241"
  loss_weight: 0.1
  include: { phase: TRAIN }
}
layer {
  name: "dc_ip1242"
  type: "InnerProduct"
  bottom: "grl242"
  top: "dc_ip1242"
  param {
    #name: "ip1_1"
    lr_mult: 10
  }
  param {
    #name: "ip1_2"
    lr_mult: 20
  }
  inner_product_param {
    num_output: 256
    weight_filler {
      type: "gaussian"
      std: 0.01
    }
    bias_filler {
      type: "constant"
    }
  }
  include: { phase: TRAIN }
}
layer {
  name: "dc_relu1242"
  type: "ReLU"
  bottom: "dc_ip1242"
  top: "dc_ip1242"
  include: { phase: TRAIN }
}
layer {
  name: "dc_drop1242"
  type: "Dropout"
  bottom: "dc_ip1242"
  top: "dc_ip1242"
  dropout_param {
    dropout_ratio: 0.5
  }
  include: { phase: TRAIN }
}
#layer {
#  name: "dc_ip2242"
#  type: "InnerProduct"
#  bottom: "dc_ip1242"
#  top: "dc_ip2242"
#  param {
#    #name: "ip2_1"
#    lr_mult: 10
#  }
#  param {
#    #name: "ip2_2"
#    lr_mult: 20
#  }
#  inner_product_param {
#    num_output: 1024
#    weight_filler {
#      type: "gaussian"
#      std: 0.01
#    }
#    bias_filler {
#      type: "constant"
#    }
#  }
#  include: { phase: TRAIN }
#}
#layer {
#  name: "dc_relu2242"
#  type: "ReLU"
#  bottom: "dc_ip2242"
#  top: "dc_ip2242"
#  include: { phase: TRAIN }
#}
#layer {
#  name: "dc_drop2242"
#  type: "Dropout"
#  bottom: "dc_ip2242"
#  top: "dc_ip2242"
#  dropout_param {
#    dropout_ratio: 0.5
#  }
#  include: { phase: TRAIN }
#}
layer {
  name: "dc_ip3242"
  type: "InnerProduct"
  bottom: "dc_ip1242"
  top: "dc_ip3242"
  param {
    lr_mult: 10
  }
  param {
    lr_mult: 20
  }
  inner_product_param {
    num_output: 1
    weight_filler {
      type: "gaussian"
      std: 0.3
    }
    bias_filler {
      type: "constant"
    }
  }
  include: { phase: TRAIN }
}
layer {
  name: "dc_loss242"
  type: "SigmoidCrossEntropyLoss"
  bottom: "dc_ip3242"
  bottom: "dc_labels"
  bottom: "weight242"
  top: "dc_loss242"
  loss_weight: 0.1
  include: { phase: TRAIN }
}
layer {
  name: "dc_ip1243"
  type: "InnerProduct"
  bottom: "grl243"
  top: "dc_ip1243"
  param {
    #name: "ip1_1"
    lr_mult: 10
  }
  param {
    #name: "ip1_2"
    lr_mult: 20
  }
  inner_product_param {
    num_output: 256
    weight_filler {
      type: "gaussian"
      std: 0.01
    }
    bias_filler {
      type: "constant"
    }
  }
  include: { phase: TRAIN }
}
layer {
  name: "dc_relu1243"
  type: "ReLU"
  bottom: "dc_ip1243"
  top: "dc_ip1243"
  include: { phase: TRAIN }
}
layer {
  name: "dc_drop1243"
  type: "Dropout"
  bottom: "dc_ip1243"
  top: "dc_ip1243"
  dropout_param {
    dropout_ratio: 0.5
  }
  include: { phase: TRAIN }
}
#layer {
#  name: "dc_ip2243"
#  type: "InnerProduct"
#  bottom: "dc_ip1243"
#  top: "dc_ip2243"
#  param {
#    #name: "ip2_1"
#    lr_mult: 10
#  }
#  param {
#    #name: "ip2_2"
#    lr_mult: 20
#  }
#  inner_product_param {
#    num_output: 1024
#    weight_filler {
#      type: "gaussian"
#      std: 0.01
#    }
#    bias_filler {
#      type: "constant"
#    }
#  }
#  include: { phase: TRAIN }
#}
#layer {
#  name: "dc_relu2243"
#  type: "ReLU"
#  bottom: "dc_ip2243"
#  top: "dc_ip2243"
#  include: { phase: TRAIN }
#}
#layer {
#  name: "dc_drop2243"
#  type: "Dropout"
#  bottom: "dc_ip2243"
#  top: "dc_ip2243"
#  dropout_param {
#    dropout_ratio: 0.5
#  }
#  include: { phase: TRAIN }
#}
layer {
  name: "dc_ip3243"
  type: "InnerProduct"
  bottom: "dc_ip1243"
  top: "dc_ip3243"
  param {
    lr_mult: 10
  }
  param {
    lr_mult: 20
  }
  inner_product_param {
    num_output: 1
    weight_filler {
      type: "gaussian"
      std: 0.3
    }
    bias_filler {
      type: "constant"
    }
  }
  include: { phase: TRAIN }
}
layer {
  name: "dc_loss243"
  type: "SigmoidCrossEntropyLoss"
  bottom: "dc_ip3243"
  bottom: "dc_labels"
  bottom: "weight243"
  top: "dc_loss243"
  loss_weight: 0.1
  include: { phase: TRAIN }
}
layer {
  name: "dc_ip1244"
  type: "InnerProduct"
  bottom: "grl244"
  top: "dc_ip1244"
  param {
    #name: "ip1_1"
    lr_mult: 10
  }
  param {
    #name: "ip1_2"
    lr_mult: 20
  }
  inner_product_param {
    num_output: 256
    weight_filler {
      type: "gaussian"
      std: 0.01
    }
    bias_filler {
      type: "constant"
    }
  }
  include: { phase: TRAIN }
}
layer {
  name: "dc_relu1244"
  type: "ReLU"
  bottom: "dc_ip1244"
  top: "dc_ip1244"
  include: { phase: TRAIN }
}
layer {
  name: "dc_drop1244"
  type: "Dropout"
  bottom: "dc_ip1244"
  top: "dc_ip1244"
  dropout_param {
    dropout_ratio: 0.5
  }
  include: { phase: TRAIN }
}
#layer {
#  name: "dc_ip2244"
#  type: "InnerProduct"
#  bottom: "dc_ip1244"
#  top: "dc_ip2244"
#  param {
#    #name: "ip2_1"
#    lr_mult: 10
#  }
#  param {
#    #name: "ip2_2"
#    lr_mult: 20
#  }
#  inner_product_param {
#    num_output: 1024
#    weight_filler {
#      type: "gaussian"
#      std: 0.01
#    }
#    bias_filler {
#      type: "constant"
#    }
#  }
#  include: { phase: TRAIN }
#}
#layer {
#  name: "dc_relu2244"
#  type: "ReLU"
#  bottom: "dc_ip2244"
#  top: "dc_ip2244"
#  include: { phase: TRAIN }
#}
#layer {
#  name: "dc_drop2244"
#  type: "Dropout"
#  bottom: "dc_ip2244"
#  top: "dc_ip2244"
#  dropout_param {
#    dropout_ratio: 0.5
#  }
#  include: { phase: TRAIN }
#}
layer {
  name: "dc_ip3244"
  type: "InnerProduct"
  bottom: "dc_ip1244"
  top: "dc_ip3244"
  param {
    lr_mult: 10
  }
  param {
    lr_mult: 20
  }
  inner_product_param {
    num_output: 1
    weight_filler {
      type: "gaussian"
      std: 0.3
    }
    bias_filler {
      type: "constant"
    }
  }
  include: { phase: TRAIN }
}
layer {
  name: "dc_loss244"
  type: "SigmoidCrossEntropyLoss"
  bottom: "dc_ip3244"
  bottom: "dc_labels"
  bottom: "weight244"
  top: "dc_loss244"
  loss_weight: 0.1
  include: { phase: TRAIN }
}
layer {
  name: "dc_ip1245"
  type: "InnerProduct"
  bottom: "grl245"
  top: "dc_ip1245"
  param {
    #name: "ip1_1"
    lr_mult: 10
  }
  param {
    #name: "ip1_2"
    lr_mult: 20
  }
  inner_product_param {
    num_output: 256
    weight_filler {
      type: "gaussian"
      std: 0.01
    }
    bias_filler {
      type: "constant"
    }
  }
  include: { phase: TRAIN }
}
layer {
  name: "dc_relu1245"
  type: "ReLU"
  bottom: "dc_ip1245"
  top: "dc_ip1245"
  include: { phase: TRAIN }
}
layer {
  name: "dc_drop1245"
  type: "Dropout"
  bottom: "dc_ip1245"
  top: "dc_ip1245"
  dropout_param {
    dropout_ratio: 0.5
  }
  include: { phase: TRAIN }
}
#layer {
#  name: "dc_ip2245"
#  type: "InnerProduct"
#  bottom: "dc_ip1245"
#  top: "dc_ip2245"
#  param {
#    #name: "ip2_1"
#    lr_mult: 10
#  }
#  param {
#    #name: "ip2_2"
#    lr_mult: 20
#  }
#  inner_product_param {
#    num_output: 1024
#    weight_filler {
#      type: "gaussian"
#      std: 0.01
#    }
#    bias_filler {
#      type: "constant"
#    }
#  }
#  include: { phase: TRAIN }
#}
#layer {
#  name: "dc_relu2245"
#  type: "ReLU"
#  bottom: "dc_ip2245"
#  top: "dc_ip2245"
#  include: { phase: TRAIN }
#}
#layer {
#  name: "dc_drop2245"
#  type: "Dropout"
#  bottom: "dc_ip2245"
#  top: "dc_ip2245"
#  dropout_param {
#    dropout_ratio: 0.5
#  }
#  include: { phase: TRAIN }
#}
layer {
  name: "dc_ip3245"
  type: "InnerProduct"
  bottom: "dc_ip1245"
  top: "dc_ip3245"
  param {
    lr_mult: 10
  }
  param {
    lr_mult: 20
  }
  inner_product_param {
    num_output: 1
    weight_filler {
      type: "gaussian"
      std: 0.3
    }
    bias_filler {
      type: "constant"
    }
  }
  include: { phase: TRAIN }
}
layer {
  name: "dc_loss245"
  type: "SigmoidCrossEntropyLoss"
  bottom: "dc_ip3245"
  bottom: "dc_labels"
  bottom: "weight245"
  top: "dc_loss245"
  loss_weight: 0.1
  include: { phase: TRAIN }
}
layer {
  name: "dc_ip1246"
  type: "InnerProduct"
  bottom: "grl246"
  top: "dc_ip1246"
  param {
    #name: "ip1_1"
    lr_mult: 10
  }
  param {
    #name: "ip1_2"
    lr_mult: 20
  }
  inner_product_param {
    num_output: 256
    weight_filler {
      type: "gaussian"
      std: 0.01
    }
    bias_filler {
      type: "constant"
    }
  }
  include: { phase: TRAIN }
}
layer {
  name: "dc_relu1246"
  type: "ReLU"
  bottom: "dc_ip1246"
  top: "dc_ip1246"
  include: { phase: TRAIN }
}
layer {
  name: "dc_drop1246"
  type: "Dropout"
  bottom: "dc_ip1246"
  top: "dc_ip1246"
  dropout_param {
    dropout_ratio: 0.5
  }
  include: { phase: TRAIN }
}
#layer {
#  name: "dc_ip2246"
#  type: "InnerProduct"
#  bottom: "dc_ip1246"
#  top: "dc_ip2246"
#  param {
#    #name: "ip2_1"
#    lr_mult: 10
#  }
#  param {
#    #name: "ip2_2"
#    lr_mult: 20
#  }
#  inner_product_param {
#    num_output: 1024
#    weight_filler {
#      type: "gaussian"
#      std: 0.01
#    }
#    bias_filler {
#      type: "constant"
#    }
#  }
#  include: { phase: TRAIN }
#}
#layer {
#  name: "dc_relu2246"
#  type: "ReLU"
#  bottom: "dc_ip2246"
#  top: "dc_ip2246"
#  include: { phase: TRAIN }
#}
#layer {
#  name: "dc_drop2246"
#  type: "Dropout"
#  bottom: "dc_ip2246"
#  top: "dc_ip2246"
#  dropout_param {
#    dropout_ratio: 0.5
#  }
#  include: { phase: TRAIN }
#}
layer {
  name: "dc_ip3246"
  type: "InnerProduct"
  bottom: "dc_ip1246"
  top: "dc_ip3246"
  param {
    lr_mult: 10
  }
  param {
    lr_mult: 20
  }
  inner_product_param {
    num_output: 1
    weight_filler {
      type: "gaussian"
      std: 0.3
    }
    bias_filler {
      type: "constant"
    }
  }
  include: { phase: TRAIN }
}
layer {
  name: "dc_loss246"
  type: "SigmoidCrossEntropyLoss"
  bottom: "dc_ip3246"
  bottom: "dc_labels"
  bottom: "weight246"
  top: "dc_loss246"
  loss_weight: 0.1
  include: { phase: TRAIN }
}
layer {
  name: "dc_ip1247"
  type: "InnerProduct"
  bottom: "grl247"
  top: "dc_ip1247"
  param {
    #name: "ip1_1"
    lr_mult: 10
  }
  param {
    #name: "ip1_2"
    lr_mult: 20
  }
  inner_product_param {
    num_output: 256
    weight_filler {
      type: "gaussian"
      std: 0.01
    }
    bias_filler {
      type: "constant"
    }
  }
  include: { phase: TRAIN }
}
layer {
  name: "dc_relu1247"
  type: "ReLU"
  bottom: "dc_ip1247"
  top: "dc_ip1247"
  include: { phase: TRAIN }
}
layer {
  name: "dc_drop1247"
  type: "Dropout"
  bottom: "dc_ip1247"
  top: "dc_ip1247"
  dropout_param {
    dropout_ratio: 0.5
  }
  include: { phase: TRAIN }
}
#layer {
#  name: "dc_ip2247"
#  type: "InnerProduct"
#  bottom: "dc_ip1247"
#  top: "dc_ip2247"
#  param {
#    #name: "ip2_1"
#    lr_mult: 10
#  }
#  param {
#    #name: "ip2_2"
#    lr_mult: 20
#  }
#  inner_product_param {
#    num_output: 1024
#    weight_filler {
#      type: "gaussian"
#      std: 0.01
#    }
#    bias_filler {
#      type: "constant"
#    }
#  }
#  include: { phase: TRAIN }
#}
#layer {
#  name: "dc_relu2247"
#  type: "ReLU"
#  bottom: "dc_ip2247"
#  top: "dc_ip2247"
#  include: { phase: TRAIN }
#}
#layer {
#  name: "dc_drop2247"
#  type: "Dropout"
#  bottom: "dc_ip2247"
#  top: "dc_ip2247"
#  dropout_param {
#    dropout_ratio: 0.5
#  }
#  include: { phase: TRAIN }
#}
layer {
  name: "dc_ip3247"
  type: "InnerProduct"
  bottom: "dc_ip1247"
  top: "dc_ip3247"
  param {
    lr_mult: 10
  }
  param {
    lr_mult: 20
  }
  inner_product_param {
    num_output: 1
    weight_filler {
      type: "gaussian"
      std: 0.3
    }
    bias_filler {
      type: "constant"
    }
  }
  include: { phase: TRAIN }
}
layer {
  name: "dc_loss247"
  type: "SigmoidCrossEntropyLoss"
  bottom: "dc_ip3247"
  bottom: "dc_labels"
  bottom: "weight247"
  top: "dc_loss247"
  loss_weight: 0.1
  include: { phase: TRAIN }
}
layer {
  name: "dc_ip1248"
  type: "InnerProduct"
  bottom: "grl248"
  top: "dc_ip1248"
  param {
    #name: "ip1_1"
    lr_mult: 10
  }
  param {
    #name: "ip1_2"
    lr_mult: 20
  }
  inner_product_param {
    num_output: 256
    weight_filler {
      type: "gaussian"
      std: 0.01
    }
    bias_filler {
      type: "constant"
    }
  }
  include: { phase: TRAIN }
}
layer {
  name: "dc_relu1248"
  type: "ReLU"
  bottom: "dc_ip1248"
  top: "dc_ip1248"
  include: { phase: TRAIN }
}
layer {
  name: "dc_drop1248"
  type: "Dropout"
  bottom: "dc_ip1248"
  top: "dc_ip1248"
  dropout_param {
    dropout_ratio: 0.5
  }
  include: { phase: TRAIN }
}
#layer {
#  name: "dc_ip2248"
#  type: "InnerProduct"
#  bottom: "dc_ip1248"
#  top: "dc_ip2248"
#  param {
#    #name: "ip2_1"
#    lr_mult: 10
#  }
#  param {
#    #name: "ip2_2"
#    lr_mult: 20
#  }
#  inner_product_param {
#    num_output: 1024
#    weight_filler {
#      type: "gaussian"
#      std: 0.01
#    }
#    bias_filler {
#      type: "constant"
#    }
#  }
#  include: { phase: TRAIN }
#}
#layer {
#  name: "dc_relu2248"
#  type: "ReLU"
#  bottom: "dc_ip2248"
#  top: "dc_ip2248"
#  include: { phase: TRAIN }
#}
#layer {
#  name: "dc_drop2248"
#  type: "Dropout"
#  bottom: "dc_ip2248"
#  top: "dc_ip2248"
#  dropout_param {
#    dropout_ratio: 0.5
#  }
#  include: { phase: TRAIN }
#}
layer {
  name: "dc_ip3248"
  type: "InnerProduct"
  bottom: "dc_ip1248"
  top: "dc_ip3248"
  param {
    lr_mult: 10
  }
  param {
    lr_mult: 20
  }
  inner_product_param {
    num_output: 1
    weight_filler {
      type: "gaussian"
      std: 0.3
    }
    bias_filler {
      type: "constant"
    }
  }
  include: { phase: TRAIN }
}
layer {
  name: "dc_loss248"
  type: "SigmoidCrossEntropyLoss"
  bottom: "dc_ip3248"
  bottom: "dc_labels"
  bottom: "weight248"
  top: "dc_loss248"
  loss_weight: 0.1
  include: { phase: TRAIN }
}
layer {
  name: "dc_ip1249"
  type: "InnerProduct"
  bottom: "grl249"
  top: "dc_ip1249"
  param {
    #name: "ip1_1"
    lr_mult: 10
  }
  param {
    #name: "ip1_2"
    lr_mult: 20
  }
  inner_product_param {
    num_output: 256
    weight_filler {
      type: "gaussian"
      std: 0.01
    }
    bias_filler {
      type: "constant"
    }
  }
  include: { phase: TRAIN }
}
layer {
  name: "dc_relu1249"
  type: "ReLU"
  bottom: "dc_ip1249"
  top: "dc_ip1249"
  include: { phase: TRAIN }
}
layer {
  name: "dc_drop1249"
  type: "Dropout"
  bottom: "dc_ip1249"
  top: "dc_ip1249"
  dropout_param {
    dropout_ratio: 0.5
  }
  include: { phase: TRAIN }
}
#layer {
#  name: "dc_ip2249"
#  type: "InnerProduct"
#  bottom: "dc_ip1249"
#  top: "dc_ip2249"
#  param {
#    #name: "ip2_1"
#    lr_mult: 10
#  }
#  param {
#    #name: "ip2_2"
#    lr_mult: 20
#  }
#  inner_product_param {
#    num_output: 1024
#    weight_filler {
#      type: "gaussian"
#      std: 0.01
#    }
#    bias_filler {
#      type: "constant"
#    }
#  }
#  include: { phase: TRAIN }
#}
#layer {
#  name: "dc_relu2249"
#  type: "ReLU"
#  bottom: "dc_ip2249"
#  top: "dc_ip2249"
#  include: { phase: TRAIN }
#}
#layer {
#  name: "dc_drop2249"
#  type: "Dropout"
#  bottom: "dc_ip2249"
#  top: "dc_ip2249"
#  dropout_param {
#    dropout_ratio: 0.5
#  }
#  include: { phase: TRAIN }
#}
layer {
  name: "dc_ip3249"
  type: "InnerProduct"
  bottom: "dc_ip1249"
  top: "dc_ip3249"
  param {
    lr_mult: 10
  }
  param {
    lr_mult: 20
  }
  inner_product_param {
    num_output: 1
    weight_filler {
      type: "gaussian"
      std: 0.3
    }
    bias_filler {
      type: "constant"
    }
  }
  include: { phase: TRAIN }
}
layer {
  name: "dc_loss249"
  type: "SigmoidCrossEntropyLoss"
  bottom: "dc_ip3249"
  bottom: "dc_labels"
  bottom: "weight249"
  top: "dc_loss249"
  loss_weight: 0.1
  include: { phase: TRAIN }
}
layer {
  name: "dc_ip1250"
  type: "InnerProduct"
  bottom: "grl250"
  top: "dc_ip1250"
  param {
    #name: "ip1_1"
    lr_mult: 10
  }
  param {
    #name: "ip1_2"
    lr_mult: 20
  }
  inner_product_param {
    num_output: 256
    weight_filler {
      type: "gaussian"
      std: 0.01
    }
    bias_filler {
      type: "constant"
    }
  }
  include: { phase: TRAIN }
}
layer {
  name: "dc_relu1250"
  type: "ReLU"
  bottom: "dc_ip1250"
  top: "dc_ip1250"
  include: { phase: TRAIN }
}
layer {
  name: "dc_drop1250"
  type: "Dropout"
  bottom: "dc_ip1250"
  top: "dc_ip1250"
  dropout_param {
    dropout_ratio: 0.5
  }
  include: { phase: TRAIN }
}
#layer {
#  name: "dc_ip2250"
#  type: "InnerProduct"
#  bottom: "dc_ip1250"
#  top: "dc_ip2250"
#  param {
#    #name: "ip2_1"
#    lr_mult: 10
#  }
#  param {
#    #name: "ip2_2"
#    lr_mult: 20
#  }
#  inner_product_param {
#    num_output: 1024
#    weight_filler {
#      type: "gaussian"
#      std: 0.01
#    }
#    bias_filler {
#      type: "constant"
#    }
#  }
#  include: { phase: TRAIN }
#}
#layer {
#  name: "dc_relu2250"
#  type: "ReLU"
#  bottom: "dc_ip2250"
#  top: "dc_ip2250"
#  include: { phase: TRAIN }
#}
#layer {
#  name: "dc_drop2250"
#  type: "Dropout"
#  bottom: "dc_ip2250"
#  top: "dc_ip2250"
#  dropout_param {
#    dropout_ratio: 0.5
#  }
#  include: { phase: TRAIN }
#}
layer {
  name: "dc_ip3250"
  type: "InnerProduct"
  bottom: "dc_ip1250"
  top: "dc_ip3250"
  param {
    lr_mult: 10
  }
  param {
    lr_mult: 20
  }
  inner_product_param {
    num_output: 1
    weight_filler {
      type: "gaussian"
      std: 0.3
    }
    bias_filler {
      type: "constant"
    }
  }
  include: { phase: TRAIN }
}
layer {
  name: "dc_loss250"
  type: "SigmoidCrossEntropyLoss"
  bottom: "dc_ip3250"
  bottom: "dc_labels"
  bottom: "weight250"
  top: "dc_loss250"
  loss_weight: 0.1
  include: { phase: TRAIN }
}
layer {
  name: "dc_ip1251"
  type: "InnerProduct"
  bottom: "grl251"
  top: "dc_ip1251"
  param {
    #name: "ip1_1"
    lr_mult: 10
  }
  param {
    #name: "ip1_2"
    lr_mult: 20
  }
  inner_product_param {
    num_output: 256
    weight_filler {
      type: "gaussian"
      std: 0.01
    }
    bias_filler {
      type: "constant"
    }
  }
  include: { phase: TRAIN }
}
layer {
  name: "dc_relu1251"
  type: "ReLU"
  bottom: "dc_ip1251"
  top: "dc_ip1251"
  include: { phase: TRAIN }
}
layer {
  name: "dc_drop1251"
  type: "Dropout"
  bottom: "dc_ip1251"
  top: "dc_ip1251"
  dropout_param {
    dropout_ratio: 0.5
  }
  include: { phase: TRAIN }
}
#layer {
#  name: "dc_ip2251"
#  type: "InnerProduct"
#  bottom: "dc_ip1251"
#  top: "dc_ip2251"
#  param {
#    #name: "ip2_1"
#    lr_mult: 10
#  }
#  param {
#    #name: "ip2_2"
#    lr_mult: 20
#  }
#  inner_product_param {
#    num_output: 1024
#    weight_filler {
#      type: "gaussian"
#      std: 0.01
#    }
#    bias_filler {
#      type: "constant"
#    }
#  }
#  include: { phase: TRAIN }
#}
#layer {
#  name: "dc_relu2251"
#  type: "ReLU"
#  bottom: "dc_ip2251"
#  top: "dc_ip2251"
#  include: { phase: TRAIN }
#}
#layer {
#  name: "dc_drop2251"
#  type: "Dropout"
#  bottom: "dc_ip2251"
#  top: "dc_ip2251"
#  dropout_param {
#    dropout_ratio: 0.5
#  }
#  include: { phase: TRAIN }
#}
layer {
  name: "dc_ip3251"
  type: "InnerProduct"
  bottom: "dc_ip1251"
  top: "dc_ip3251"
  param {
    lr_mult: 10
  }
  param {
    lr_mult: 20
  }
  inner_product_param {
    num_output: 1
    weight_filler {
      type: "gaussian"
      std: 0.3
    }
    bias_filler {
      type: "constant"
    }
  }
  include: { phase: TRAIN }
}
layer {
  name: "dc_loss251"
  type: "SigmoidCrossEntropyLoss"
  bottom: "dc_ip3251"
  bottom: "dc_labels"
  bottom: "weight251"
  top: "dc_loss251"
  loss_weight: 0.1
  include: { phase: TRAIN }
}
layer {
  name: "dc_ip1252"
  type: "InnerProduct"
  bottom: "grl252"
  top: "dc_ip1252"
  param {
    #name: "ip1_1"
    lr_mult: 10
  }
  param {
    #name: "ip1_2"
    lr_mult: 20
  }
  inner_product_param {
    num_output: 256
    weight_filler {
      type: "gaussian"
      std: 0.01
    }
    bias_filler {
      type: "constant"
    }
  }
  include: { phase: TRAIN }
}
layer {
  name: "dc_relu1252"
  type: "ReLU"
  bottom: "dc_ip1252"
  top: "dc_ip1252"
  include: { phase: TRAIN }
}
layer {
  name: "dc_drop1252"
  type: "Dropout"
  bottom: "dc_ip1252"
  top: "dc_ip1252"
  dropout_param {
    dropout_ratio: 0.5
  }
  include: { phase: TRAIN }
}
#layer {
#  name: "dc_ip2252"
#  type: "InnerProduct"
#  bottom: "dc_ip1252"
#  top: "dc_ip2252"
#  param {
#    #name: "ip2_1"
#    lr_mult: 10
#  }
#  param {
#    #name: "ip2_2"
#    lr_mult: 20
#  }
#  inner_product_param {
#    num_output: 1024
#    weight_filler {
#      type: "gaussian"
#      std: 0.01
#    }
#    bias_filler {
#      type: "constant"
#    }
#  }
#  include: { phase: TRAIN }
#}
#layer {
#  name: "dc_relu2252"
#  type: "ReLU"
#  bottom: "dc_ip2252"
#  top: "dc_ip2252"
#  include: { phase: TRAIN }
#}
#layer {
#  name: "dc_drop2252"
#  type: "Dropout"
#  bottom: "dc_ip2252"
#  top: "dc_ip2252"
#  dropout_param {
#    dropout_ratio: 0.5
#  }
#  include: { phase: TRAIN }
#}
layer {
  name: "dc_ip3252"
  type: "InnerProduct"
  bottom: "dc_ip1252"
  top: "dc_ip3252"
  param {
    lr_mult: 10
  }
  param {
    lr_mult: 20
  }
  inner_product_param {
    num_output: 1
    weight_filler {
      type: "gaussian"
      std: 0.3
    }
    bias_filler {
      type: "constant"
    }
  }
  include: { phase: TRAIN }
}
layer {
  name: "dc_loss252"
  type: "SigmoidCrossEntropyLoss"
  bottom: "dc_ip3252"
  bottom: "dc_labels"
  bottom: "weight252"
  top: "dc_loss252"
  loss_weight: 0.1
  include: { phase: TRAIN }
}
layer {
  name: "dc_ip1253"
  type: "InnerProduct"
  bottom: "grl253"
  top: "dc_ip1253"
  param {
    #name: "ip1_1"
    lr_mult: 10
  }
  param {
    #name: "ip1_2"
    lr_mult: 20
  }
  inner_product_param {
    num_output: 256
    weight_filler {
      type: "gaussian"
      std: 0.01
    }
    bias_filler {
      type: "constant"
    }
  }
  include: { phase: TRAIN }
}
layer {
  name: "dc_relu1253"
  type: "ReLU"
  bottom: "dc_ip1253"
  top: "dc_ip1253"
  include: { phase: TRAIN }
}
layer {
  name: "dc_drop1253"
  type: "Dropout"
  bottom: "dc_ip1253"
  top: "dc_ip1253"
  dropout_param {
    dropout_ratio: 0.5
  }
  include: { phase: TRAIN }
}
#layer {
#  name: "dc_ip2253"
#  type: "InnerProduct"
#  bottom: "dc_ip1253"
#  top: "dc_ip2253"
#  param {
#    #name: "ip2_1"
#    lr_mult: 10
#  }
#  param {
#    #name: "ip2_2"
#    lr_mult: 20
#  }
#  inner_product_param {
#    num_output: 1024
#    weight_filler {
#      type: "gaussian"
#      std: 0.01
#    }
#    bias_filler {
#      type: "constant"
#    }
#  }
#  include: { phase: TRAIN }
#}
#layer {
#  name: "dc_relu2253"
#  type: "ReLU"
#  bottom: "dc_ip2253"
#  top: "dc_ip2253"
#  include: { phase: TRAIN }
#}
#layer {
#  name: "dc_drop2253"
#  type: "Dropout"
#  bottom: "dc_ip2253"
#  top: "dc_ip2253"
#  dropout_param {
#    dropout_ratio: 0.5
#  }
#  include: { phase: TRAIN }
#}
layer {
  name: "dc_ip3253"
  type: "InnerProduct"
  bottom: "dc_ip1253"
  top: "dc_ip3253"
  param {
    lr_mult: 10
  }
  param {
    lr_mult: 20
  }
  inner_product_param {
    num_output: 1
    weight_filler {
      type: "gaussian"
      std: 0.3
    }
    bias_filler {
      type: "constant"
    }
  }
  include: { phase: TRAIN }
}
layer {
  name: "dc_loss253"
  type: "SigmoidCrossEntropyLoss"
  bottom: "dc_ip3253"
  bottom: "dc_labels"
  bottom: "weight253"
  top: "dc_loss253"
  loss_weight: 0.1
  include: { phase: TRAIN }
}
layer {
  name: "dc_ip1254"
  type: "InnerProduct"
  bottom: "grl254"
  top: "dc_ip1254"
  param {
    #name: "ip1_1"
    lr_mult: 10
  }
  param {
    #name: "ip1_2"
    lr_mult: 20
  }
  inner_product_param {
    num_output: 256
    weight_filler {
      type: "gaussian"
      std: 0.01
    }
    bias_filler {
      type: "constant"
    }
  }
  include: { phase: TRAIN }
}
layer {
  name: "dc_relu1254"
  type: "ReLU"
  bottom: "dc_ip1254"
  top: "dc_ip1254"
  include: { phase: TRAIN }
}
layer {
  name: "dc_drop1254"
  type: "Dropout"
  bottom: "dc_ip1254"
  top: "dc_ip1254"
  dropout_param {
    dropout_ratio: 0.5
  }
  include: { phase: TRAIN }
}
#layer {
#  name: "dc_ip2254"
#  type: "InnerProduct"
#  bottom: "dc_ip1254"
#  top: "dc_ip2254"
#  param {
#    #name: "ip2_1"
#    lr_mult: 10
#  }
#  param {
#    #name: "ip2_2"
#    lr_mult: 20
#  }
#  inner_product_param {
#    num_output: 1024
#    weight_filler {
#      type: "gaussian"
#      std: 0.01
#    }
#    bias_filler {
#      type: "constant"
#    }
#  }
#  include: { phase: TRAIN }
#}
#layer {
#  name: "dc_relu2254"
#  type: "ReLU"
#  bottom: "dc_ip2254"
#  top: "dc_ip2254"
#  include: { phase: TRAIN }
#}
#layer {
#  name: "dc_drop2254"
#  type: "Dropout"
#  bottom: "dc_ip2254"
#  top: "dc_ip2254"
#  dropout_param {
#    dropout_ratio: 0.5
#  }
#  include: { phase: TRAIN }
#}
layer {
  name: "dc_ip3254"
  type: "InnerProduct"
  bottom: "dc_ip1254"
  top: "dc_ip3254"
  param {
    lr_mult: 10
  }
  param {
    lr_mult: 20
  }
  inner_product_param {
    num_output: 1
    weight_filler {
      type: "gaussian"
      std: 0.3
    }
    bias_filler {
      type: "constant"
    }
  }
  include: { phase: TRAIN }
}
layer {
  name: "dc_loss254"
  type: "SigmoidCrossEntropyLoss"
  bottom: "dc_ip3254"
  bottom: "dc_labels"
  bottom: "weight254"
  top: "dc_loss254"
  loss_weight: 0.1
  include: { phase: TRAIN }
}
layer {
  name: "dc_ip1255"
  type: "InnerProduct"
  bottom: "grl255"
  top: "dc_ip1255"
  param {
    #name: "ip1_1"
    lr_mult: 10
  }
  param {
    #name: "ip1_2"
    lr_mult: 20
  }
  inner_product_param {
    num_output: 256
    weight_filler {
      type: "gaussian"
      std: 0.01
    }
    bias_filler {
      type: "constant"
    }
  }
  include: { phase: TRAIN }
}
layer {
  name: "dc_relu1255"
  type: "ReLU"
  bottom: "dc_ip1255"
  top: "dc_ip1255"
  include: { phase: TRAIN }
}
layer {
  name: "dc_drop1255"
  type: "Dropout"
  bottom: "dc_ip1255"
  top: "dc_ip1255"
  dropout_param {
    dropout_ratio: 0.5
  }
  include: { phase: TRAIN }
}
#layer {
#  name: "dc_ip2255"
#  type: "InnerProduct"
#  bottom: "dc_ip1255"
#  top: "dc_ip2255"
#  param {
#    #name: "ip2_1"
#    lr_mult: 10
#  }
#  param {
#    #name: "ip2_2"
#    lr_mult: 20
#  }
#  inner_product_param {
#    num_output: 1024
#    weight_filler {
#      type: "gaussian"
#      std: 0.01
#    }
#    bias_filler {
#      type: "constant"
#    }
#  }
#  include: { phase: TRAIN }
#}
#layer {
#  name: "dc_relu2255"
#  type: "ReLU"
#  bottom: "dc_ip2255"
#  top: "dc_ip2255"
#  include: { phase: TRAIN }
#}
#layer {
#  name: "dc_drop2255"
#  type: "Dropout"
#  bottom: "dc_ip2255"
#  top: "dc_ip2255"
#  dropout_param {
#    dropout_ratio: 0.5
#  }
#  include: { phase: TRAIN }
#}
layer {
  name: "dc_ip3255"
  type: "InnerProduct"
  bottom: "dc_ip1255"
  top: "dc_ip3255"
  param {
    lr_mult: 10
  }
  param {
    lr_mult: 20
  }
  inner_product_param {
    num_output: 1
    weight_filler {
      type: "gaussian"
      std: 0.3
    }
    bias_filler {
      type: "constant"
    }
  }
  include: { phase: TRAIN }
}
layer {
  name: "dc_loss255"
  type: "SigmoidCrossEntropyLoss"
  bottom: "dc_ip3255"
  bottom: "dc_labels"
  bottom: "weight255"
  top: "dc_loss255"
  loss_weight: 0.1
  include: { phase: TRAIN }
}
